<?xml version="1.0" ?>
<net name="model" version="10">
	<layers>
		<layer id="0" name="642/Output_0/Data__const" type="Const" version="opset1">
			<data element_type="f32" offset="0" shape="1,4,4" size="64"/>
			<output>
				<port id="0" names="642" precision="FP32">
					<dim>1</dim>
					<dim>4</dim>
					<dim>4</dim>
				</port>
			</output>
		</layer>
		<layer id="1" name="1396/Output_0/Data__const" type="Const" version="opset1">
			<data element_type="i64" offset="64" shape="" size="8"/>
			<output>
				<port id="0" names="1396" precision="I64"/>
			</output>
		</layer>
		<layer id="2" name="image" type="Parameter" version="opset1">
			<data element_type="f32" shape="1,3,512,512"/>
			<output>
				<port id="0" precision="FP32">
					<dim>1</dim>
					<dim>3</dim>
					<dim>512</dim>
					<dim>512</dim>
				</port>
			</output>
		</layer>
		<layer id="3" name="image/reverse_input_channels/Concat35196_const" type="Const" version="opset1">
			<data element_type="f32" offset="72" shape="32,3,3,3" size="3456"/>
			<output>
				<port id="0" names="1229" precision="FP32">
					<dim>32</dim>
					<dim>3</dim>
					<dim>3</dim>
					<dim>3</dim>
				</port>
			</output>
		</layer>
		<layer id="4" name="Conv_6/WithoutBiases" type="Convolution" version="opset1">
			<data auto_pad="explicit" dilations="1,1" pads_begin="1,1" pads_end="1,1" strides="2,2"/>
			<input>
				<port id="0">
					<dim>1</dim>
					<dim>3</dim>
					<dim>512</dim>
					<dim>512</dim>
				</port>
				<port id="1">
					<dim>32</dim>
					<dim>3</dim>
					<dim>3</dim>
					<dim>3</dim>
				</port>
			</input>
			<output>
				<port id="2" precision="FP32">
					<dim>1</dim>
					<dim>32</dim>
					<dim>256</dim>
					<dim>256</dim>
				</port>
			</output>
		</layer>
		<layer id="5" name="Conv_6/Dims1005917012/EltwiseUnsqueeze17261_const" type="Const" version="opset1">
			<data element_type="f32" offset="3528" shape="1,32,1,1" size="128"/>
			<output>
				<port id="0" precision="FP32">
					<dim>1</dim>
					<dim>32</dim>
					<dim>1</dim>
					<dim>1</dim>
				</port>
			</output>
		</layer>
		<layer id="6" name="Conv_6" type="Add" version="opset1">
			<data auto_broadcast="numpy"/>
			<input>
				<port id="0">
					<dim>1</dim>
					<dim>32</dim>
					<dim>256</dim>
					<dim>256</dim>
				</port>
				<port id="1">
					<dim>1</dim>
					<dim>32</dim>
					<dim>1</dim>
					<dim>1</dim>
				</port>
			</input>
			<output>
				<port id="2" names="1228" precision="FP32">
					<dim>1</dim>
					<dim>32</dim>
					<dim>256</dim>
					<dim>256</dim>
				</port>
			</output>
		</layer>
		<layer id="7" name="Clip_9" type="Clamp" version="opset1">
			<data max="6.0" min="0.0"/>
			<input>
				<port id="0">
					<dim>1</dim>
					<dim>32</dim>
					<dim>256</dim>
					<dim>256</dim>
				</port>
			</input>
			<output>
				<port id="1" names="360" precision="FP32">
					<dim>1</dim>
					<dim>32</dim>
					<dim>256</dim>
					<dim>256</dim>
				</port>
			</output>
		</layer>
		<layer id="8" name="1232/Output_0/Data__const" type="Const" version="opset1">
			<data element_type="f32" offset="3656" shape="32,32,1,1" size="4096"/>
			<output>
				<port id="0" names="1232" precision="FP32">
					<dim>32</dim>
					<dim>32</dim>
					<dim>1</dim>
					<dim>1</dim>
				</port>
			</output>
		</layer>
		<layer id="9" name="Conv_10/WithoutBiases" type="Convolution" version="opset1">
			<data auto_pad="explicit" dilations="1,1" pads_begin="0,0" pads_end="0,0" strides="1,1"/>
			<input>
				<port id="0">
					<dim>1</dim>
					<dim>32</dim>
					<dim>256</dim>
					<dim>256</dim>
				</port>
				<port id="1">
					<dim>32</dim>
					<dim>32</dim>
					<dim>1</dim>
					<dim>1</dim>
				</port>
			</input>
			<output>
				<port id="2" precision="FP32">
					<dim>1</dim>
					<dim>32</dim>
					<dim>256</dim>
					<dim>256</dim>
				</port>
			</output>
		</layer>
		<layer id="10" name="Conv_10/Dims1022117039/EltwiseUnsqueeze17369_const" type="Const" version="opset1">
			<data element_type="f32" offset="7752" shape="1,32,1,1" size="128"/>
			<output>
				<port id="0" precision="FP32">
					<dim>1</dim>
					<dim>32</dim>
					<dim>1</dim>
					<dim>1</dim>
				</port>
			</output>
		</layer>
		<layer id="11" name="Conv_10" type="Add" version="opset1">
			<data auto_broadcast="numpy"/>
			<input>
				<port id="0">
					<dim>1</dim>
					<dim>32</dim>
					<dim>256</dim>
					<dim>256</dim>
				</port>
				<port id="1">
					<dim>1</dim>
					<dim>32</dim>
					<dim>1</dim>
					<dim>1</dim>
				</port>
			</input>
			<output>
				<port id="2" names="1231" precision="FP32">
					<dim>1</dim>
					<dim>32</dim>
					<dim>256</dim>
					<dim>256</dim>
				</port>
			</output>
		</layer>
		<layer id="12" name="Clip_13" type="Clamp" version="opset1">
			<data max="6.0" min="0.0"/>
			<input>
				<port id="0">
					<dim>1</dim>
					<dim>32</dim>
					<dim>256</dim>
					<dim>256</dim>
				</port>
			</input>
			<output>
				<port id="1" names="365" precision="FP32">
					<dim>1</dim>
					<dim>32</dim>
					<dim>256</dim>
					<dim>256</dim>
				</port>
			</output>
		</layer>
		<layer id="13" name="3710737110_const" type="Const" version="opset1">
			<data element_type="f32" offset="7880" shape="32,1,1,3,3" size="1152"/>
			<output>
				<port id="0" names="1235" precision="FP32">
					<dim>32</dim>
					<dim>1</dim>
					<dim>1</dim>
					<dim>3</dim>
					<dim>3</dim>
				</port>
			</output>
		</layer>
		<layer id="14" name="Conv_14/WithoutBiases" type="GroupConvolution" version="opset1">
			<data auto_pad="explicit" dilations="1,1" pads_begin="1,1" pads_end="1,1" strides="1,1"/>
			<input>
				<port id="0">
					<dim>1</dim>
					<dim>32</dim>
					<dim>256</dim>
					<dim>256</dim>
				</port>
				<port id="1">
					<dim>32</dim>
					<dim>1</dim>
					<dim>1</dim>
					<dim>3</dim>
					<dim>3</dim>
				</port>
			</input>
			<output>
				<port id="2" precision="FP32">
					<dim>1</dim>
					<dim>32</dim>
					<dim>256</dim>
					<dim>256</dim>
				</port>
			</output>
		</layer>
		<layer id="15" name="Conv_14/Dims1020917037/EltwiseUnsqueeze17361_const" type="Const" version="opset1">
			<data element_type="f32" offset="9032" shape="1,32,1,1" size="128"/>
			<output>
				<port id="0" precision="FP32">
					<dim>1</dim>
					<dim>32</dim>
					<dim>1</dim>
					<dim>1</dim>
				</port>
			</output>
		</layer>
		<layer id="16" name="Conv_14" type="Add" version="opset1">
			<data auto_broadcast="numpy"/>
			<input>
				<port id="0">
					<dim>1</dim>
					<dim>32</dim>
					<dim>256</dim>
					<dim>256</dim>
				</port>
				<port id="1">
					<dim>1</dim>
					<dim>32</dim>
					<dim>1</dim>
					<dim>1</dim>
				</port>
			</input>
			<output>
				<port id="2" names="1234" precision="FP32">
					<dim>1</dim>
					<dim>32</dim>
					<dim>256</dim>
					<dim>256</dim>
				</port>
			</output>
		</layer>
		<layer id="17" name="Clip_17" type="Clamp" version="opset1">
			<data max="6.0" min="0.0"/>
			<input>
				<port id="0">
					<dim>1</dim>
					<dim>32</dim>
					<dim>256</dim>
					<dim>256</dim>
				</port>
			</input>
			<output>
				<port id="1" names="370" precision="FP32">
					<dim>1</dim>
					<dim>32</dim>
					<dim>256</dim>
					<dim>256</dim>
				</port>
			</output>
		</layer>
		<layer id="18" name="1238/Output_0/Data__const" type="Const" version="opset1">
			<data element_type="f32" offset="9160" shape="16,32,1,1" size="2048"/>
			<output>
				<port id="0" names="1238" precision="FP32">
					<dim>16</dim>
					<dim>32</dim>
					<dim>1</dim>
					<dim>1</dim>
				</port>
			</output>
		</layer>
		<layer id="19" name="Conv_18/WithoutBiases" type="Convolution" version="opset1">
			<data auto_pad="explicit" dilations="1,1" pads_begin="0,0" pads_end="0,0" strides="1,1"/>
			<input>
				<port id="0">
					<dim>1</dim>
					<dim>32</dim>
					<dim>256</dim>
					<dim>256</dim>
				</port>
				<port id="1">
					<dim>16</dim>
					<dim>32</dim>
					<dim>1</dim>
					<dim>1</dim>
				</port>
			</input>
			<output>
				<port id="2" precision="FP32">
					<dim>1</dim>
					<dim>16</dim>
					<dim>256</dim>
					<dim>256</dim>
				</port>
			</output>
		</layer>
		<layer id="20" name="Conv_18/Dims1010117019/EltwiseUnsqueeze17289_const" type="Const" version="opset1">
			<data element_type="f32" offset="11208" shape="1,16,1,1" size="64"/>
			<output>
				<port id="0" precision="FP32">
					<dim>1</dim>
					<dim>16</dim>
					<dim>1</dim>
					<dim>1</dim>
				</port>
			</output>
		</layer>
		<layer id="21" name="Conv_18" type="Add" version="opset1">
			<data auto_broadcast="numpy"/>
			<input>
				<port id="0">
					<dim>1</dim>
					<dim>16</dim>
					<dim>256</dim>
					<dim>256</dim>
				</port>
				<port id="1">
					<dim>1</dim>
					<dim>16</dim>
					<dim>1</dim>
					<dim>1</dim>
				</port>
			</input>
			<output>
				<port id="2" names="1237" precision="FP32">
					<dim>1</dim>
					<dim>16</dim>
					<dim>256</dim>
					<dim>256</dim>
				</port>
			</output>
		</layer>
		<layer id="22" name="1241/Output_0/Data__const" type="Const" version="opset1">
			<data element_type="f32" offset="11272" shape="96,16,1,1" size="6144"/>
			<output>
				<port id="0" names="1241" precision="FP32">
					<dim>96</dim>
					<dim>16</dim>
					<dim>1</dim>
					<dim>1</dim>
				</port>
			</output>
		</layer>
		<layer id="23" name="Conv_19/WithoutBiases" type="Convolution" version="opset1">
			<data auto_pad="explicit" dilations="1,1" pads_begin="0,0" pads_end="0,0" strides="1,1"/>
			<input>
				<port id="0">
					<dim>1</dim>
					<dim>16</dim>
					<dim>256</dim>
					<dim>256</dim>
				</port>
				<port id="1">
					<dim>96</dim>
					<dim>16</dim>
					<dim>1</dim>
					<dim>1</dim>
				</port>
			</input>
			<output>
				<port id="2" precision="FP32">
					<dim>1</dim>
					<dim>96</dim>
					<dim>256</dim>
					<dim>256</dim>
				</port>
			</output>
		</layer>
		<layer id="24" name="Conv_19/Dims989716985/EltwiseUnsqueeze17153_const" type="Const" version="opset1">
			<data element_type="f32" offset="17416" shape="1,96,1,1" size="384"/>
			<output>
				<port id="0" precision="FP32">
					<dim>1</dim>
					<dim>96</dim>
					<dim>1</dim>
					<dim>1</dim>
				</port>
			</output>
		</layer>
		<layer id="25" name="Conv_19" type="Add" version="opset1">
			<data auto_broadcast="numpy"/>
			<input>
				<port id="0">
					<dim>1</dim>
					<dim>96</dim>
					<dim>256</dim>
					<dim>256</dim>
				</port>
				<port id="1">
					<dim>1</dim>
					<dim>96</dim>
					<dim>1</dim>
					<dim>1</dim>
				</port>
			</input>
			<output>
				<port id="2" names="1240" precision="FP32">
					<dim>1</dim>
					<dim>96</dim>
					<dim>256</dim>
					<dim>256</dim>
				</port>
			</output>
		</layer>
		<layer id="26" name="Clip_22" type="Clamp" version="opset1">
			<data max="6.0" min="0.0"/>
			<input>
				<port id="0">
					<dim>1</dim>
					<dim>96</dim>
					<dim>256</dim>
					<dim>256</dim>
				</port>
			</input>
			<output>
				<port id="1" names="377" precision="FP32">
					<dim>1</dim>
					<dim>96</dim>
					<dim>256</dim>
					<dim>256</dim>
				</port>
			</output>
		</layer>
		<layer id="27" name="3706737070_const" type="Const" version="opset1">
			<data element_type="f32" offset="17800" shape="96,1,1,3,3" size="3456"/>
			<output>
				<port id="0" names="1244" precision="FP32">
					<dim>96</dim>
					<dim>1</dim>
					<dim>1</dim>
					<dim>3</dim>
					<dim>3</dim>
				</port>
			</output>
		</layer>
		<layer id="28" name="Conv_23/WithoutBiases" type="GroupConvolution" version="opset1">
			<data auto_pad="explicit" dilations="1,1" pads_begin="1,1" pads_end="1,1" strides="2,2"/>
			<input>
				<port id="0">
					<dim>1</dim>
					<dim>96</dim>
					<dim>256</dim>
					<dim>256</dim>
				</port>
				<port id="1">
					<dim>96</dim>
					<dim>1</dim>
					<dim>1</dim>
					<dim>3</dim>
					<dim>3</dim>
				</port>
			</input>
			<output>
				<port id="2" precision="FP32">
					<dim>1</dim>
					<dim>96</dim>
					<dim>128</dim>
					<dim>128</dim>
				</port>
			</output>
		</layer>
		<layer id="29" name="Conv_23/Dims1004117009/EltwiseUnsqueeze17249_const" type="Const" version="opset1">
			<data element_type="f32" offset="21256" shape="1,96,1,1" size="384"/>
			<output>
				<port id="0" precision="FP32">
					<dim>1</dim>
					<dim>96</dim>
					<dim>1</dim>
					<dim>1</dim>
				</port>
			</output>
		</layer>
		<layer id="30" name="Conv_23" type="Add" version="opset1">
			<data auto_broadcast="numpy"/>
			<input>
				<port id="0">
					<dim>1</dim>
					<dim>96</dim>
					<dim>128</dim>
					<dim>128</dim>
				</port>
				<port id="1">
					<dim>1</dim>
					<dim>96</dim>
					<dim>1</dim>
					<dim>1</dim>
				</port>
			</input>
			<output>
				<port id="2" names="1243" precision="FP32">
					<dim>1</dim>
					<dim>96</dim>
					<dim>128</dim>
					<dim>128</dim>
				</port>
			</output>
		</layer>
		<layer id="31" name="Clip_26" type="Clamp" version="opset1">
			<data max="6.0" min="0.0"/>
			<input>
				<port id="0">
					<dim>1</dim>
					<dim>96</dim>
					<dim>128</dim>
					<dim>128</dim>
				</port>
			</input>
			<output>
				<port id="1" names="382" precision="FP32">
					<dim>1</dim>
					<dim>96</dim>
					<dim>128</dim>
					<dim>128</dim>
				</port>
			</output>
		</layer>
		<layer id="32" name="1247/Output_0/Data__const" type="Const" version="opset1">
			<data element_type="f32" offset="21640" shape="24,96,1,1" size="9216"/>
			<output>
				<port id="0" names="1247" precision="FP32">
					<dim>24</dim>
					<dim>96</dim>
					<dim>1</dim>
					<dim>1</dim>
				</port>
			</output>
		</layer>
		<layer id="33" name="Conv_27/WithoutBiases" type="Convolution" version="opset1">
			<data auto_pad="explicit" dilations="1,1" pads_begin="0,0" pads_end="0,0" strides="1,1"/>
			<input>
				<port id="0">
					<dim>1</dim>
					<dim>96</dim>
					<dim>128</dim>
					<dim>128</dim>
				</port>
				<port id="1">
					<dim>24</dim>
					<dim>96</dim>
					<dim>1</dim>
					<dim>1</dim>
				</port>
			</input>
			<output>
				<port id="2" precision="FP32">
					<dim>1</dim>
					<dim>24</dim>
					<dim>128</dim>
					<dim>128</dim>
				</port>
			</output>
		</layer>
		<layer id="34" name="Conv_27/Dims1019717035/EltwiseUnsqueeze17353_const" type="Const" version="opset1">
			<data element_type="f32" offset="30856" shape="1,24,1,1" size="96"/>
			<output>
				<port id="0" precision="FP32">
					<dim>1</dim>
					<dim>24</dim>
					<dim>1</dim>
					<dim>1</dim>
				</port>
			</output>
		</layer>
		<layer id="35" name="Conv_27" type="Add" version="opset1">
			<data auto_broadcast="numpy"/>
			<input>
				<port id="0">
					<dim>1</dim>
					<dim>24</dim>
					<dim>128</dim>
					<dim>128</dim>
				</port>
				<port id="1">
					<dim>1</dim>
					<dim>24</dim>
					<dim>1</dim>
					<dim>1</dim>
				</port>
			</input>
			<output>
				<port id="2" names="1246" precision="FP32">
					<dim>1</dim>
					<dim>24</dim>
					<dim>128</dim>
					<dim>128</dim>
				</port>
			</output>
		</layer>
		<layer id="36" name="1250/Output_0/Data__const" type="Const" version="opset1">
			<data element_type="f32" offset="30952" shape="144,24,1,1" size="13824"/>
			<output>
				<port id="0" names="1250" precision="FP32">
					<dim>144</dim>
					<dim>24</dim>
					<dim>1</dim>
					<dim>1</dim>
				</port>
			</output>
		</layer>
		<layer id="37" name="Conv_28/WithoutBiases" type="Convolution" version="opset1">
			<data auto_pad="explicit" dilations="1,1" pads_begin="0,0" pads_end="0,0" strides="1,1"/>
			<input>
				<port id="0">
					<dim>1</dim>
					<dim>24</dim>
					<dim>128</dim>
					<dim>128</dim>
				</port>
				<port id="1">
					<dim>144</dim>
					<dim>24</dim>
					<dim>1</dim>
					<dim>1</dim>
				</port>
			</input>
			<output>
				<port id="2" precision="FP32">
					<dim>1</dim>
					<dim>144</dim>
					<dim>128</dim>
					<dim>128</dim>
				</port>
			</output>
		</layer>
		<layer id="38" name="Conv_28/Dims991516988/EltwiseUnsqueeze17165_const" type="Const" version="opset1">
			<data element_type="f32" offset="44776" shape="1,144,1,1" size="576"/>
			<output>
				<port id="0" precision="FP32">
					<dim>1</dim>
					<dim>144</dim>
					<dim>1</dim>
					<dim>1</dim>
				</port>
			</output>
		</layer>
		<layer id="39" name="Conv_28" type="Add" version="opset1">
			<data auto_broadcast="numpy"/>
			<input>
				<port id="0">
					<dim>1</dim>
					<dim>144</dim>
					<dim>128</dim>
					<dim>128</dim>
				</port>
				<port id="1">
					<dim>1</dim>
					<dim>144</dim>
					<dim>1</dim>
					<dim>1</dim>
				</port>
			</input>
			<output>
				<port id="2" names="1249" precision="FP32">
					<dim>1</dim>
					<dim>144</dim>
					<dim>128</dim>
					<dim>128</dim>
				</port>
			</output>
		</layer>
		<layer id="40" name="Clip_31" type="Clamp" version="opset1">
			<data max="6.0" min="0.0"/>
			<input>
				<port id="0">
					<dim>1</dim>
					<dim>144</dim>
					<dim>128</dim>
					<dim>128</dim>
				</port>
			</input>
			<output>
				<port id="1" names="389" precision="FP32">
					<dim>1</dim>
					<dim>144</dim>
					<dim>128</dim>
					<dim>128</dim>
				</port>
			</output>
		</layer>
		<layer id="41" name="3709137094_const" type="Const" version="opset1">
			<data element_type="f32" offset="45352" shape="144,1,1,3,3" size="5184"/>
			<output>
				<port id="0" names="1253" precision="FP32">
					<dim>144</dim>
					<dim>1</dim>
					<dim>1</dim>
					<dim>3</dim>
					<dim>3</dim>
				</port>
			</output>
		</layer>
		<layer id="42" name="Conv_32/WithoutBiases" type="GroupConvolution" version="opset1">
			<data auto_pad="explicit" dilations="1,1" pads_begin="1,1" pads_end="1,1" strides="1,1"/>
			<input>
				<port id="0">
					<dim>1</dim>
					<dim>144</dim>
					<dim>128</dim>
					<dim>128</dim>
				</port>
				<port id="1">
					<dim>144</dim>
					<dim>1</dim>
					<dim>1</dim>
					<dim>3</dim>
					<dim>3</dim>
				</port>
			</input>
			<output>
				<port id="2" precision="FP32">
					<dim>1</dim>
					<dim>144</dim>
					<dim>128</dim>
					<dim>128</dim>
				</port>
			</output>
		</layer>
		<layer id="43" name="Conv_32/Dims1013117024/EltwiseUnsqueeze17309_const" type="Const" version="opset1">
			<data element_type="f32" offset="50536" shape="1,144,1,1" size="576"/>
			<output>
				<port id="0" precision="FP32">
					<dim>1</dim>
					<dim>144</dim>
					<dim>1</dim>
					<dim>1</dim>
				</port>
			</output>
		</layer>
		<layer id="44" name="Conv_32" type="Add" version="opset1">
			<data auto_broadcast="numpy"/>
			<input>
				<port id="0">
					<dim>1</dim>
					<dim>144</dim>
					<dim>128</dim>
					<dim>128</dim>
				</port>
				<port id="1">
					<dim>1</dim>
					<dim>144</dim>
					<dim>1</dim>
					<dim>1</dim>
				</port>
			</input>
			<output>
				<port id="2" names="1252" precision="FP32">
					<dim>1</dim>
					<dim>144</dim>
					<dim>128</dim>
					<dim>128</dim>
				</port>
			</output>
		</layer>
		<layer id="45" name="Clip_35" type="Clamp" version="opset1">
			<data max="6.0" min="0.0"/>
			<input>
				<port id="0">
					<dim>1</dim>
					<dim>144</dim>
					<dim>128</dim>
					<dim>128</dim>
				</port>
			</input>
			<output>
				<port id="1" names="394" precision="FP32">
					<dim>1</dim>
					<dim>144</dim>
					<dim>128</dim>
					<dim>128</dim>
				</port>
			</output>
		</layer>
		<layer id="46" name="1256/Output_0/Data__const" type="Const" version="opset1">
			<data element_type="f32" offset="51112" shape="24,144,1,1" size="13824"/>
			<output>
				<port id="0" names="1256" precision="FP32">
					<dim>24</dim>
					<dim>144</dim>
					<dim>1</dim>
					<dim>1</dim>
				</port>
			</output>
		</layer>
		<layer id="47" name="Conv_36/WithoutBiases" type="Convolution" version="opset1">
			<data auto_pad="explicit" dilations="1,1" pads_begin="0,0" pads_end="0,0" strides="1,1"/>
			<input>
				<port id="0">
					<dim>1</dim>
					<dim>144</dim>
					<dim>128</dim>
					<dim>128</dim>
				</port>
				<port id="1">
					<dim>24</dim>
					<dim>144</dim>
					<dim>1</dim>
					<dim>1</dim>
				</port>
			</input>
			<output>
				<port id="2" precision="FP32">
					<dim>1</dim>
					<dim>24</dim>
					<dim>128</dim>
					<dim>128</dim>
				</port>
			</output>
		</layer>
		<layer id="48" name="Conv_36/Dims1015517028/EltwiseUnsqueeze17325_const" type="Const" version="opset1">
			<data element_type="f32" offset="64936" shape="1,24,1,1" size="96"/>
			<output>
				<port id="0" precision="FP32">
					<dim>1</dim>
					<dim>24</dim>
					<dim>1</dim>
					<dim>1</dim>
				</port>
			</output>
		</layer>
		<layer id="49" name="Conv_36" type="Add" version="opset1">
			<data auto_broadcast="numpy"/>
			<input>
				<port id="0">
					<dim>1</dim>
					<dim>24</dim>
					<dim>128</dim>
					<dim>128</dim>
				</port>
				<port id="1">
					<dim>1</dim>
					<dim>24</dim>
					<dim>1</dim>
					<dim>1</dim>
				</port>
			</input>
			<output>
				<port id="2" names="1255" precision="FP32">
					<dim>1</dim>
					<dim>24</dim>
					<dim>128</dim>
					<dim>128</dim>
				</port>
			</output>
		</layer>
		<layer id="50" name="Add_37" type="Add" version="opset1">
			<data auto_broadcast="numpy"/>
			<input>
				<port id="0">
					<dim>1</dim>
					<dim>24</dim>
					<dim>128</dim>
					<dim>128</dim>
				</port>
				<port id="1">
					<dim>1</dim>
					<dim>24</dim>
					<dim>128</dim>
					<dim>128</dim>
				</port>
			</input>
			<output>
				<port id="2" names="397" precision="FP32">
					<dim>1</dim>
					<dim>24</dim>
					<dim>128</dim>
					<dim>128</dim>
				</port>
			</output>
		</layer>
		<layer id="51" name="1259/Output_0/Data__const" type="Const" version="opset1">
			<data element_type="f32" offset="65032" shape="144,24,1,1" size="13824"/>
			<output>
				<port id="0" names="1259" precision="FP32">
					<dim>144</dim>
					<dim>24</dim>
					<dim>1</dim>
					<dim>1</dim>
				</port>
			</output>
		</layer>
		<layer id="52" name="Conv_38/WithoutBiases" type="Convolution" version="opset1">
			<data auto_pad="explicit" dilations="1,1" pads_begin="0,0" pads_end="0,0" strides="1,1"/>
			<input>
				<port id="0">
					<dim>1</dim>
					<dim>24</dim>
					<dim>128</dim>
					<dim>128</dim>
				</port>
				<port id="1">
					<dim>144</dim>
					<dim>24</dim>
					<dim>1</dim>
					<dim>1</dim>
				</port>
			</input>
			<output>
				<port id="2" precision="FP32">
					<dim>1</dim>
					<dim>144</dim>
					<dim>128</dim>
					<dim>128</dim>
				</port>
			</output>
		</layer>
		<layer id="53" name="Conv_38/Dims1014917027/EltwiseUnsqueeze17321_const" type="Const" version="opset1">
			<data element_type="f32" offset="78856" shape="1,144,1,1" size="576"/>
			<output>
				<port id="0" precision="FP32">
					<dim>1</dim>
					<dim>144</dim>
					<dim>1</dim>
					<dim>1</dim>
				</port>
			</output>
		</layer>
		<layer id="54" name="Conv_38" type="Add" version="opset1">
			<data auto_broadcast="numpy"/>
			<input>
				<port id="0">
					<dim>1</dim>
					<dim>144</dim>
					<dim>128</dim>
					<dim>128</dim>
				</port>
				<port id="1">
					<dim>1</dim>
					<dim>144</dim>
					<dim>1</dim>
					<dim>1</dim>
				</port>
			</input>
			<output>
				<port id="2" names="1258" precision="FP32">
					<dim>1</dim>
					<dim>144</dim>
					<dim>128</dim>
					<dim>128</dim>
				</port>
			</output>
		</layer>
		<layer id="55" name="Clip_41" type="Clamp" version="opset1">
			<data max="6.0" min="0.0"/>
			<input>
				<port id="0">
					<dim>1</dim>
					<dim>144</dim>
					<dim>128</dim>
					<dim>128</dim>
				</port>
			</input>
			<output>
				<port id="1" names="402" precision="FP32">
					<dim>1</dim>
					<dim>144</dim>
					<dim>128</dim>
					<dim>128</dim>
				</port>
			</output>
		</layer>
		<layer id="56" name="3708337086_const" type="Const" version="opset1">
			<data element_type="f32" offset="79432" shape="144,1,1,3,3" size="5184"/>
			<output>
				<port id="0" names="1262" precision="FP32">
					<dim>144</dim>
					<dim>1</dim>
					<dim>1</dim>
					<dim>3</dim>
					<dim>3</dim>
				</port>
			</output>
		</layer>
		<layer id="57" name="Conv_42/WithoutBiases" type="GroupConvolution" version="opset1">
			<data auto_pad="explicit" dilations="1,1" pads_begin="1,1" pads_end="1,1" strides="2,2"/>
			<input>
				<port id="0">
					<dim>1</dim>
					<dim>144</dim>
					<dim>128</dim>
					<dim>128</dim>
				</port>
				<port id="1">
					<dim>144</dim>
					<dim>1</dim>
					<dim>1</dim>
					<dim>3</dim>
					<dim>3</dim>
				</port>
			</input>
			<output>
				<port id="2" precision="FP32">
					<dim>1</dim>
					<dim>144</dim>
					<dim>64</dim>
					<dim>64</dim>
				</port>
			</output>
		</layer>
		<layer id="58" name="Conv_42/Dims1011317021/EltwiseUnsqueeze17297_const" type="Const" version="opset1">
			<data element_type="f32" offset="84616" shape="1,144,1,1" size="576"/>
			<output>
				<port id="0" precision="FP32">
					<dim>1</dim>
					<dim>144</dim>
					<dim>1</dim>
					<dim>1</dim>
				</port>
			</output>
		</layer>
		<layer id="59" name="Conv_42" type="Add" version="opset1">
			<data auto_broadcast="numpy"/>
			<input>
				<port id="0">
					<dim>1</dim>
					<dim>144</dim>
					<dim>64</dim>
					<dim>64</dim>
				</port>
				<port id="1">
					<dim>1</dim>
					<dim>144</dim>
					<dim>1</dim>
					<dim>1</dim>
				</port>
			</input>
			<output>
				<port id="2" names="1261" precision="FP32">
					<dim>1</dim>
					<dim>144</dim>
					<dim>64</dim>
					<dim>64</dim>
				</port>
			</output>
		</layer>
		<layer id="60" name="Clip_45" type="Clamp" version="opset1">
			<data max="6.0" min="0.0"/>
			<input>
				<port id="0">
					<dim>1</dim>
					<dim>144</dim>
					<dim>64</dim>
					<dim>64</dim>
				</port>
			</input>
			<output>
				<port id="1" names="407" precision="FP32">
					<dim>1</dim>
					<dim>144</dim>
					<dim>64</dim>
					<dim>64</dim>
				</port>
			</output>
		</layer>
		<layer id="61" name="1265/Output_0/Data__const" type="Const" version="opset1">
			<data element_type="f32" offset="85192" shape="32,144,1,1" size="18432"/>
			<output>
				<port id="0" names="1265" precision="FP32">
					<dim>32</dim>
					<dim>144</dim>
					<dim>1</dim>
					<dim>1</dim>
				</port>
			</output>
		</layer>
		<layer id="62" name="Conv_46/WithoutBiases" type="Convolution" version="opset1">
			<data auto_pad="explicit" dilations="1,1" pads_begin="0,0" pads_end="0,0" strides="1,1"/>
			<input>
				<port id="0">
					<dim>1</dim>
					<dim>144</dim>
					<dim>64</dim>
					<dim>64</dim>
				</port>
				<port id="1">
					<dim>32</dim>
					<dim>144</dim>
					<dim>1</dim>
					<dim>1</dim>
				</port>
			</input>
			<output>
				<port id="2" precision="FP32">
					<dim>1</dim>
					<dim>32</dim>
					<dim>64</dim>
					<dim>64</dim>
				</port>
			</output>
		</layer>
		<layer id="63" name="Conv_46/Dims1013717025/EltwiseUnsqueeze17313_const" type="Const" version="opset1">
			<data element_type="f32" offset="103624" shape="1,32,1,1" size="128"/>
			<output>
				<port id="0" precision="FP32">
					<dim>1</dim>
					<dim>32</dim>
					<dim>1</dim>
					<dim>1</dim>
				</port>
			</output>
		</layer>
		<layer id="64" name="Conv_46" type="Add" version="opset1">
			<data auto_broadcast="numpy"/>
			<input>
				<port id="0">
					<dim>1</dim>
					<dim>32</dim>
					<dim>64</dim>
					<dim>64</dim>
				</port>
				<port id="1">
					<dim>1</dim>
					<dim>32</dim>
					<dim>1</dim>
					<dim>1</dim>
				</port>
			</input>
			<output>
				<port id="2" names="1264" precision="FP32">
					<dim>1</dim>
					<dim>32</dim>
					<dim>64</dim>
					<dim>64</dim>
				</port>
			</output>
		</layer>
		<layer id="65" name="1268/Output_0/Data__const" type="Const" version="opset1">
			<data element_type="f32" offset="103752" shape="192,32,1,1" size="24576"/>
			<output>
				<port id="0" names="1268" precision="FP32">
					<dim>192</dim>
					<dim>32</dim>
					<dim>1</dim>
					<dim>1</dim>
				</port>
			</output>
		</layer>
		<layer id="66" name="Conv_47/WithoutBiases" type="Convolution" version="opset1">
			<data auto_pad="explicit" dilations="1,1" pads_begin="0,0" pads_end="0,0" strides="1,1"/>
			<input>
				<port id="0">
					<dim>1</dim>
					<dim>32</dim>
					<dim>64</dim>
					<dim>64</dim>
				</port>
				<port id="1">
					<dim>192</dim>
					<dim>32</dim>
					<dim>1</dim>
					<dim>1</dim>
				</port>
			</input>
			<output>
				<port id="2" precision="FP32">
					<dim>1</dim>
					<dim>192</dim>
					<dim>64</dim>
					<dim>64</dim>
				</port>
			</output>
		</layer>
		<layer id="67" name="Conv_47/Dims995116994/EltwiseUnsqueeze17189_const" type="Const" version="opset1">
			<data element_type="f32" offset="128328" shape="1,192,1,1" size="768"/>
			<output>
				<port id="0" precision="FP32">
					<dim>1</dim>
					<dim>192</dim>
					<dim>1</dim>
					<dim>1</dim>
				</port>
			</output>
		</layer>
		<layer id="68" name="Conv_47" type="Add" version="opset1">
			<data auto_broadcast="numpy"/>
			<input>
				<port id="0">
					<dim>1</dim>
					<dim>192</dim>
					<dim>64</dim>
					<dim>64</dim>
				</port>
				<port id="1">
					<dim>1</dim>
					<dim>192</dim>
					<dim>1</dim>
					<dim>1</dim>
				</port>
			</input>
			<output>
				<port id="2" names="1267" precision="FP32">
					<dim>1</dim>
					<dim>192</dim>
					<dim>64</dim>
					<dim>64</dim>
				</port>
			</output>
		</layer>
		<layer id="69" name="Clip_50" type="Clamp" version="opset1">
			<data max="6.0" min="0.0"/>
			<input>
				<port id="0">
					<dim>1</dim>
					<dim>192</dim>
					<dim>64</dim>
					<dim>64</dim>
				</port>
			</input>
			<output>
				<port id="1" names="414" precision="FP32">
					<dim>1</dim>
					<dim>192</dim>
					<dim>64</dim>
					<dim>64</dim>
				</port>
			</output>
		</layer>
		<layer id="70" name="3707537078_const" type="Const" version="opset1">
			<data element_type="f32" offset="129096" shape="192,1,1,3,3" size="6912"/>
			<output>
				<port id="0" names="1271" precision="FP32">
					<dim>192</dim>
					<dim>1</dim>
					<dim>1</dim>
					<dim>3</dim>
					<dim>3</dim>
				</port>
			</output>
		</layer>
		<layer id="71" name="Conv_51/WithoutBiases" type="GroupConvolution" version="opset1">
			<data auto_pad="explicit" dilations="1,1" pads_begin="1,1" pads_end="1,1" strides="1,1"/>
			<input>
				<port id="0">
					<dim>1</dim>
					<dim>192</dim>
					<dim>64</dim>
					<dim>64</dim>
				</port>
				<port id="1">
					<dim>192</dim>
					<dim>1</dim>
					<dim>1</dim>
					<dim>3</dim>
					<dim>3</dim>
				</port>
			</input>
			<output>
				<port id="2" precision="FP32">
					<dim>1</dim>
					<dim>192</dim>
					<dim>64</dim>
					<dim>64</dim>
				</port>
			</output>
		</layer>
		<layer id="72" name="Conv_51/Dims1006517013/EltwiseUnsqueeze17265_const" type="Const" version="opset1">
			<data element_type="f32" offset="136008" shape="1,192,1,1" size="768"/>
			<output>
				<port id="0" precision="FP32">
					<dim>1</dim>
					<dim>192</dim>
					<dim>1</dim>
					<dim>1</dim>
				</port>
			</output>
		</layer>
		<layer id="73" name="Conv_51" type="Add" version="opset1">
			<data auto_broadcast="numpy"/>
			<input>
				<port id="0">
					<dim>1</dim>
					<dim>192</dim>
					<dim>64</dim>
					<dim>64</dim>
				</port>
				<port id="1">
					<dim>1</dim>
					<dim>192</dim>
					<dim>1</dim>
					<dim>1</dim>
				</port>
			</input>
			<output>
				<port id="2" names="1270" precision="FP32">
					<dim>1</dim>
					<dim>192</dim>
					<dim>64</dim>
					<dim>64</dim>
				</port>
			</output>
		</layer>
		<layer id="74" name="Clip_54" type="Clamp" version="opset1">
			<data max="6.0" min="0.0"/>
			<input>
				<port id="0">
					<dim>1</dim>
					<dim>192</dim>
					<dim>64</dim>
					<dim>64</dim>
				</port>
			</input>
			<output>
				<port id="1" names="419" precision="FP32">
					<dim>1</dim>
					<dim>192</dim>
					<dim>64</dim>
					<dim>64</dim>
				</port>
			</output>
		</layer>
		<layer id="75" name="1274/Output_0/Data__const" type="Const" version="opset1">
			<data element_type="f32" offset="136776" shape="32,192,1,1" size="24576"/>
			<output>
				<port id="0" names="1274" precision="FP32">
					<dim>32</dim>
					<dim>192</dim>
					<dim>1</dim>
					<dim>1</dim>
				</port>
			</output>
		</layer>
		<layer id="76" name="Conv_55/WithoutBiases" type="Convolution" version="opset1">
			<data auto_pad="explicit" dilations="1,1" pads_begin="0,0" pads_end="0,0" strides="1,1"/>
			<input>
				<port id="0">
					<dim>1</dim>
					<dim>192</dim>
					<dim>64</dim>
					<dim>64</dim>
				</port>
				<port id="1">
					<dim>32</dim>
					<dim>192</dim>
					<dim>1</dim>
					<dim>1</dim>
				</port>
			</input>
			<output>
				<port id="2" precision="FP32">
					<dim>1</dim>
					<dim>32</dim>
					<dim>64</dim>
					<dim>64</dim>
				</port>
			</output>
		</layer>
		<layer id="77" name="Conv_55/Dims1002917007/EltwiseUnsqueeze17241_const" type="Const" version="opset1">
			<data element_type="f32" offset="161352" shape="1,32,1,1" size="128"/>
			<output>
				<port id="0" precision="FP32">
					<dim>1</dim>
					<dim>32</dim>
					<dim>1</dim>
					<dim>1</dim>
				</port>
			</output>
		</layer>
		<layer id="78" name="Conv_55" type="Add" version="opset1">
			<data auto_broadcast="numpy"/>
			<input>
				<port id="0">
					<dim>1</dim>
					<dim>32</dim>
					<dim>64</dim>
					<dim>64</dim>
				</port>
				<port id="1">
					<dim>1</dim>
					<dim>32</dim>
					<dim>1</dim>
					<dim>1</dim>
				</port>
			</input>
			<output>
				<port id="2" names="1273" precision="FP32">
					<dim>1</dim>
					<dim>32</dim>
					<dim>64</dim>
					<dim>64</dim>
				</port>
			</output>
		</layer>
		<layer id="79" name="Add_56" type="Add" version="opset1">
			<data auto_broadcast="numpy"/>
			<input>
				<port id="0">
					<dim>1</dim>
					<dim>32</dim>
					<dim>64</dim>
					<dim>64</dim>
				</port>
				<port id="1">
					<dim>1</dim>
					<dim>32</dim>
					<dim>64</dim>
					<dim>64</dim>
				</port>
			</input>
			<output>
				<port id="2" names="422" precision="FP32">
					<dim>1</dim>
					<dim>32</dim>
					<dim>64</dim>
					<dim>64</dim>
				</port>
			</output>
		</layer>
		<layer id="80" name="1277/Output_0/Data__const" type="Const" version="opset1">
			<data element_type="f32" offset="161480" shape="192,32,1,1" size="24576"/>
			<output>
				<port id="0" names="1277" precision="FP32">
					<dim>192</dim>
					<dim>32</dim>
					<dim>1</dim>
					<dim>1</dim>
				</port>
			</output>
		</layer>
		<layer id="81" name="Conv_57/WithoutBiases" type="Convolution" version="opset1">
			<data auto_pad="explicit" dilations="1,1" pads_begin="0,0" pads_end="0,0" strides="1,1"/>
			<input>
				<port id="0">
					<dim>1</dim>
					<dim>32</dim>
					<dim>64</dim>
					<dim>64</dim>
				</port>
				<port id="1">
					<dim>192</dim>
					<dim>32</dim>
					<dim>1</dim>
					<dim>1</dim>
				</port>
			</input>
			<output>
				<port id="2" precision="FP32">
					<dim>1</dim>
					<dim>192</dim>
					<dim>64</dim>
					<dim>64</dim>
				</port>
			</output>
		</layer>
		<layer id="82" name="Conv_57/Dims992716990/EltwiseUnsqueeze17173_const" type="Const" version="opset1">
			<data element_type="f32" offset="186056" shape="1,192,1,1" size="768"/>
			<output>
				<port id="0" precision="FP32">
					<dim>1</dim>
					<dim>192</dim>
					<dim>1</dim>
					<dim>1</dim>
				</port>
			</output>
		</layer>
		<layer id="83" name="Conv_57" type="Add" version="opset1">
			<data auto_broadcast="numpy"/>
			<input>
				<port id="0">
					<dim>1</dim>
					<dim>192</dim>
					<dim>64</dim>
					<dim>64</dim>
				</port>
				<port id="1">
					<dim>1</dim>
					<dim>192</dim>
					<dim>1</dim>
					<dim>1</dim>
				</port>
			</input>
			<output>
				<port id="2" names="1276" precision="FP32">
					<dim>1</dim>
					<dim>192</dim>
					<dim>64</dim>
					<dim>64</dim>
				</port>
			</output>
		</layer>
		<layer id="84" name="Clip_60" type="Clamp" version="opset1">
			<data max="6.0" min="0.0"/>
			<input>
				<port id="0">
					<dim>1</dim>
					<dim>192</dim>
					<dim>64</dim>
					<dim>64</dim>
				</port>
			</input>
			<output>
				<port id="1" names="427" precision="FP32">
					<dim>1</dim>
					<dim>192</dim>
					<dim>64</dim>
					<dim>64</dim>
				</port>
			</output>
		</layer>
		<layer id="85" name="3703937042_const" type="Const" version="opset1">
			<data element_type="f32" offset="186824" shape="192,1,1,3,3" size="6912"/>
			<output>
				<port id="0" names="1280" precision="FP32">
					<dim>192</dim>
					<dim>1</dim>
					<dim>1</dim>
					<dim>3</dim>
					<dim>3</dim>
				</port>
			</output>
		</layer>
		<layer id="86" name="Conv_61/WithoutBiases" type="GroupConvolution" version="opset1">
			<data auto_pad="explicit" dilations="1,1" pads_begin="1,1" pads_end="1,1" strides="1,1"/>
			<input>
				<port id="0">
					<dim>1</dim>
					<dim>192</dim>
					<dim>64</dim>
					<dim>64</dim>
				</port>
				<port id="1">
					<dim>192</dim>
					<dim>1</dim>
					<dim>1</dim>
					<dim>3</dim>
					<dim>3</dim>
				</port>
			</input>
			<output>
				<port id="2" precision="FP32">
					<dim>1</dim>
					<dim>192</dim>
					<dim>64</dim>
					<dim>64</dim>
				</port>
			</output>
		</layer>
		<layer id="87" name="Conv_61/Dims992116989/EltwiseUnsqueeze17169_const" type="Const" version="opset1">
			<data element_type="f32" offset="193736" shape="1,192,1,1" size="768"/>
			<output>
				<port id="0" precision="FP32">
					<dim>1</dim>
					<dim>192</dim>
					<dim>1</dim>
					<dim>1</dim>
				</port>
			</output>
		</layer>
		<layer id="88" name="Conv_61" type="Add" version="opset1">
			<data auto_broadcast="numpy"/>
			<input>
				<port id="0">
					<dim>1</dim>
					<dim>192</dim>
					<dim>64</dim>
					<dim>64</dim>
				</port>
				<port id="1">
					<dim>1</dim>
					<dim>192</dim>
					<dim>1</dim>
					<dim>1</dim>
				</port>
			</input>
			<output>
				<port id="2" names="1279" precision="FP32">
					<dim>1</dim>
					<dim>192</dim>
					<dim>64</dim>
					<dim>64</dim>
				</port>
			</output>
		</layer>
		<layer id="89" name="Clip_64" type="Clamp" version="opset1">
			<data max="6.0" min="0.0"/>
			<input>
				<port id="0">
					<dim>1</dim>
					<dim>192</dim>
					<dim>64</dim>
					<dim>64</dim>
				</port>
			</input>
			<output>
				<port id="1" names="432" precision="FP32">
					<dim>1</dim>
					<dim>192</dim>
					<dim>64</dim>
					<dim>64</dim>
				</port>
			</output>
		</layer>
		<layer id="90" name="1283/Output_0/Data__const" type="Const" version="opset1">
			<data element_type="f32" offset="194504" shape="32,192,1,1" size="24576"/>
			<output>
				<port id="0" names="1283" precision="FP32">
					<dim>32</dim>
					<dim>192</dim>
					<dim>1</dim>
					<dim>1</dim>
				</port>
			</output>
		</layer>
		<layer id="91" name="Conv_65/WithoutBiases" type="Convolution" version="opset1">
			<data auto_pad="explicit" dilations="1,1" pads_begin="0,0" pads_end="0,0" strides="1,1"/>
			<input>
				<port id="0">
					<dim>1</dim>
					<dim>192</dim>
					<dim>64</dim>
					<dim>64</dim>
				</port>
				<port id="1">
					<dim>32</dim>
					<dim>192</dim>
					<dim>1</dim>
					<dim>1</dim>
				</port>
			</input>
			<output>
				<port id="2" precision="FP32">
					<dim>1</dim>
					<dim>32</dim>
					<dim>64</dim>
					<dim>64</dim>
				</port>
			</output>
		</layer>
		<layer id="92" name="Conv_65/Dims1000517003/EltwiseUnsqueeze17225_const" type="Const" version="opset1">
			<data element_type="f32" offset="219080" shape="1,32,1,1" size="128"/>
			<output>
				<port id="0" precision="FP32">
					<dim>1</dim>
					<dim>32</dim>
					<dim>1</dim>
					<dim>1</dim>
				</port>
			</output>
		</layer>
		<layer id="93" name="Conv_65" type="Add" version="opset1">
			<data auto_broadcast="numpy"/>
			<input>
				<port id="0">
					<dim>1</dim>
					<dim>32</dim>
					<dim>64</dim>
					<dim>64</dim>
				</port>
				<port id="1">
					<dim>1</dim>
					<dim>32</dim>
					<dim>1</dim>
					<dim>1</dim>
				</port>
			</input>
			<output>
				<port id="2" names="1282" precision="FP32">
					<dim>1</dim>
					<dim>32</dim>
					<dim>64</dim>
					<dim>64</dim>
				</port>
			</output>
		</layer>
		<layer id="94" name="Add_66" type="Add" version="opset1">
			<data auto_broadcast="numpy"/>
			<input>
				<port id="0">
					<dim>1</dim>
					<dim>32</dim>
					<dim>64</dim>
					<dim>64</dim>
				</port>
				<port id="1">
					<dim>1</dim>
					<dim>32</dim>
					<dim>64</dim>
					<dim>64</dim>
				</port>
			</input>
			<output>
				<port id="2" names="435" precision="FP32">
					<dim>1</dim>
					<dim>32</dim>
					<dim>64</dim>
					<dim>64</dim>
				</port>
			</output>
		</layer>
		<layer id="95" name="1286/Output_0/Data__const" type="Const" version="opset1">
			<data element_type="f32" offset="219208" shape="192,32,1,1" size="24576"/>
			<output>
				<port id="0" names="1286" precision="FP32">
					<dim>192</dim>
					<dim>32</dim>
					<dim>1</dim>
					<dim>1</dim>
				</port>
			</output>
		</layer>
		<layer id="96" name="Conv_67/WithoutBiases" type="Convolution" version="opset1">
			<data auto_pad="explicit" dilations="1,1" pads_begin="0,0" pads_end="0,0" strides="1,1"/>
			<input>
				<port id="0">
					<dim>1</dim>
					<dim>32</dim>
					<dim>64</dim>
					<dim>64</dim>
				</port>
				<port id="1">
					<dim>192</dim>
					<dim>32</dim>
					<dim>1</dim>
					<dim>1</dim>
				</port>
			</input>
			<output>
				<port id="2" precision="FP32">
					<dim>1</dim>
					<dim>192</dim>
					<dim>64</dim>
					<dim>64</dim>
				</port>
			</output>
		</layer>
		<layer id="97" name="Conv_67/Dims1001717005/EltwiseUnsqueeze17233_const" type="Const" version="opset1">
			<data element_type="f32" offset="243784" shape="1,192,1,1" size="768"/>
			<output>
				<port id="0" precision="FP32">
					<dim>1</dim>
					<dim>192</dim>
					<dim>1</dim>
					<dim>1</dim>
				</port>
			</output>
		</layer>
		<layer id="98" name="Conv_67" type="Add" version="opset1">
			<data auto_broadcast="numpy"/>
			<input>
				<port id="0">
					<dim>1</dim>
					<dim>192</dim>
					<dim>64</dim>
					<dim>64</dim>
				</port>
				<port id="1">
					<dim>1</dim>
					<dim>192</dim>
					<dim>1</dim>
					<dim>1</dim>
				</port>
			</input>
			<output>
				<port id="2" names="1285" precision="FP32">
					<dim>1</dim>
					<dim>192</dim>
					<dim>64</dim>
					<dim>64</dim>
				</port>
			</output>
		</layer>
		<layer id="99" name="Clip_70" type="Clamp" version="opset1">
			<data max="6.0" min="0.0"/>
			<input>
				<port id="0">
					<dim>1</dim>
					<dim>192</dim>
					<dim>64</dim>
					<dim>64</dim>
				</port>
			</input>
			<output>
				<port id="1" names="440" precision="FP32">
					<dim>1</dim>
					<dim>192</dim>
					<dim>64</dim>
					<dim>64</dim>
				</port>
			</output>
		</layer>
		<layer id="100" name="3706337066_const" type="Const" version="opset1">
			<data element_type="f32" offset="244552" shape="192,1,1,3,3" size="6912"/>
			<output>
				<port id="0" names="1289" precision="FP32">
					<dim>192</dim>
					<dim>1</dim>
					<dim>1</dim>
					<dim>3</dim>
					<dim>3</dim>
				</port>
			</output>
		</layer>
		<layer id="101" name="Conv_71/WithoutBiases" type="GroupConvolution" version="opset1">
			<data auto_pad="explicit" dilations="1,1" pads_begin="1,1" pads_end="1,1" strides="2,2"/>
			<input>
				<port id="0">
					<dim>1</dim>
					<dim>192</dim>
					<dim>64</dim>
					<dim>64</dim>
				</port>
				<port id="1">
					<dim>192</dim>
					<dim>1</dim>
					<dim>1</dim>
					<dim>3</dim>
					<dim>3</dim>
				</port>
			</input>
			<output>
				<port id="2" precision="FP32">
					<dim>1</dim>
					<dim>192</dim>
					<dim>32</dim>
					<dim>32</dim>
				</port>
			</output>
		</layer>
		<layer id="102" name="Conv_71/Dims1002317006/EltwiseUnsqueeze17237_const" type="Const" version="opset1">
			<data element_type="f32" offset="251464" shape="1,192,1,1" size="768"/>
			<output>
				<port id="0" precision="FP32">
					<dim>1</dim>
					<dim>192</dim>
					<dim>1</dim>
					<dim>1</dim>
				</port>
			</output>
		</layer>
		<layer id="103" name="Conv_71" type="Add" version="opset1">
			<data auto_broadcast="numpy"/>
			<input>
				<port id="0">
					<dim>1</dim>
					<dim>192</dim>
					<dim>32</dim>
					<dim>32</dim>
				</port>
				<port id="1">
					<dim>1</dim>
					<dim>192</dim>
					<dim>1</dim>
					<dim>1</dim>
				</port>
			</input>
			<output>
				<port id="2" names="1288" precision="FP32">
					<dim>1</dim>
					<dim>192</dim>
					<dim>32</dim>
					<dim>32</dim>
				</port>
			</output>
		</layer>
		<layer id="104" name="Clip_74" type="Clamp" version="opset1">
			<data max="6.0" min="0.0"/>
			<input>
				<port id="0">
					<dim>1</dim>
					<dim>192</dim>
					<dim>32</dim>
					<dim>32</dim>
				</port>
			</input>
			<output>
				<port id="1" names="445" precision="FP32">
					<dim>1</dim>
					<dim>192</dim>
					<dim>32</dim>
					<dim>32</dim>
				</port>
			</output>
		</layer>
		<layer id="105" name="1292/Output_0/Data__const" type="Const" version="opset1">
			<data element_type="f32" offset="252232" shape="64,192,1,1" size="49152"/>
			<output>
				<port id="0" names="1292" precision="FP32">
					<dim>64</dim>
					<dim>192</dim>
					<dim>1</dim>
					<dim>1</dim>
				</port>
			</output>
		</layer>
		<layer id="106" name="Conv_75/WithoutBiases" type="Convolution" version="opset1">
			<data auto_pad="explicit" dilations="1,1" pads_begin="0,0" pads_end="0,0" strides="1,1"/>
			<input>
				<port id="0">
					<dim>1</dim>
					<dim>192</dim>
					<dim>32</dim>
					<dim>32</dim>
				</port>
				<port id="1">
					<dim>64</dim>
					<dim>192</dim>
					<dim>1</dim>
					<dim>1</dim>
				</port>
			</input>
			<output>
				<port id="2" precision="FP32">
					<dim>1</dim>
					<dim>64</dim>
					<dim>32</dim>
					<dim>32</dim>
				</port>
			</output>
		</layer>
		<layer id="107" name="Conv_75/Dims1012517023/EltwiseUnsqueeze17305_const" type="Const" version="opset1">
			<data element_type="f32" offset="301384" shape="1,64,1,1" size="256"/>
			<output>
				<port id="0" precision="FP32">
					<dim>1</dim>
					<dim>64</dim>
					<dim>1</dim>
					<dim>1</dim>
				</port>
			</output>
		</layer>
		<layer id="108" name="Conv_75" type="Add" version="opset1">
			<data auto_broadcast="numpy"/>
			<input>
				<port id="0">
					<dim>1</dim>
					<dim>64</dim>
					<dim>32</dim>
					<dim>32</dim>
				</port>
				<port id="1">
					<dim>1</dim>
					<dim>64</dim>
					<dim>1</dim>
					<dim>1</dim>
				</port>
			</input>
			<output>
				<port id="2" names="1291" precision="FP32">
					<dim>1</dim>
					<dim>64</dim>
					<dim>32</dim>
					<dim>32</dim>
				</port>
			</output>
		</layer>
		<layer id="109" name="1295/Output_0/Data__const" type="Const" version="opset1">
			<data element_type="f32" offset="301640" shape="384,64,1,1" size="98304"/>
			<output>
				<port id="0" names="1295" precision="FP32">
					<dim>384</dim>
					<dim>64</dim>
					<dim>1</dim>
					<dim>1</dim>
				</port>
			</output>
		</layer>
		<layer id="110" name="Conv_76/WithoutBiases" type="Convolution" version="opset1">
			<data auto_pad="explicit" dilations="1,1" pads_begin="0,0" pads_end="0,0" strides="1,1"/>
			<input>
				<port id="0">
					<dim>1</dim>
					<dim>64</dim>
					<dim>32</dim>
					<dim>32</dim>
				</port>
				<port id="1">
					<dim>384</dim>
					<dim>64</dim>
					<dim>1</dim>
					<dim>1</dim>
				</port>
			</input>
			<output>
				<port id="2" precision="FP32">
					<dim>1</dim>
					<dim>384</dim>
					<dim>32</dim>
					<dim>32</dim>
				</port>
			</output>
		</layer>
		<layer id="111" name="Conv_76/Dims1007717015/EltwiseUnsqueeze17273_const" type="Const" version="opset1">
			<data element_type="f32" offset="399944" shape="1,384,1,1" size="1536"/>
			<output>
				<port id="0" precision="FP32">
					<dim>1</dim>
					<dim>384</dim>
					<dim>1</dim>
					<dim>1</dim>
				</port>
			</output>
		</layer>
		<layer id="112" name="Conv_76" type="Add" version="opset1">
			<data auto_broadcast="numpy"/>
			<input>
				<port id="0">
					<dim>1</dim>
					<dim>384</dim>
					<dim>32</dim>
					<dim>32</dim>
				</port>
				<port id="1">
					<dim>1</dim>
					<dim>384</dim>
					<dim>1</dim>
					<dim>1</dim>
				</port>
			</input>
			<output>
				<port id="2" names="1294" precision="FP32">
					<dim>1</dim>
					<dim>384</dim>
					<dim>32</dim>
					<dim>32</dim>
				</port>
			</output>
		</layer>
		<layer id="113" name="Clip_79" type="Clamp" version="opset1">
			<data max="6.0" min="0.0"/>
			<input>
				<port id="0">
					<dim>1</dim>
					<dim>384</dim>
					<dim>32</dim>
					<dim>32</dim>
				</port>
			</input>
			<output>
				<port id="1" names="452" precision="FP32">
					<dim>1</dim>
					<dim>384</dim>
					<dim>32</dim>
					<dim>32</dim>
				</port>
			</output>
		</layer>
		<layer id="114" name="3703537038_const" type="Const" version="opset1">
			<data element_type="f32" offset="401480" shape="384,1,1,3,3" size="13824"/>
			<output>
				<port id="0" names="1298" precision="FP32">
					<dim>384</dim>
					<dim>1</dim>
					<dim>1</dim>
					<dim>3</dim>
					<dim>3</dim>
				</port>
			</output>
		</layer>
		<layer id="115" name="Conv_80/WithoutBiases" type="GroupConvolution" version="opset1">
			<data auto_pad="explicit" dilations="1,1" pads_begin="1,1" pads_end="1,1" strides="1,1"/>
			<input>
				<port id="0">
					<dim>1</dim>
					<dim>384</dim>
					<dim>32</dim>
					<dim>32</dim>
				</port>
				<port id="1">
					<dim>384</dim>
					<dim>1</dim>
					<dim>1</dim>
					<dim>3</dim>
					<dim>3</dim>
				</port>
			</input>
			<output>
				<port id="2" precision="FP32">
					<dim>1</dim>
					<dim>384</dim>
					<dim>32</dim>
					<dim>32</dim>
				</port>
			</output>
		</layer>
		<layer id="116" name="Conv_80/Dims990916987/EltwiseUnsqueeze17161_const" type="Const" version="opset1">
			<data element_type="f32" offset="415304" shape="1,384,1,1" size="1536"/>
			<output>
				<port id="0" precision="FP32">
					<dim>1</dim>
					<dim>384</dim>
					<dim>1</dim>
					<dim>1</dim>
				</port>
			</output>
		</layer>
		<layer id="117" name="Conv_80" type="Add" version="opset1">
			<data auto_broadcast="numpy"/>
			<input>
				<port id="0">
					<dim>1</dim>
					<dim>384</dim>
					<dim>32</dim>
					<dim>32</dim>
				</port>
				<port id="1">
					<dim>1</dim>
					<dim>384</dim>
					<dim>1</dim>
					<dim>1</dim>
				</port>
			</input>
			<output>
				<port id="2" names="1297" precision="FP32">
					<dim>1</dim>
					<dim>384</dim>
					<dim>32</dim>
					<dim>32</dim>
				</port>
			</output>
		</layer>
		<layer id="118" name="Clip_83" type="Clamp" version="opset1">
			<data max="6.0" min="0.0"/>
			<input>
				<port id="0">
					<dim>1</dim>
					<dim>384</dim>
					<dim>32</dim>
					<dim>32</dim>
				</port>
			</input>
			<output>
				<port id="1" names="457" precision="FP32">
					<dim>1</dim>
					<dim>384</dim>
					<dim>32</dim>
					<dim>32</dim>
				</port>
			</output>
		</layer>
		<layer id="119" name="1301/Output_0/Data__const" type="Const" version="opset1">
			<data element_type="f32" offset="416840" shape="64,384,1,1" size="98304"/>
			<output>
				<port id="0" names="1301" precision="FP32">
					<dim>64</dim>
					<dim>384</dim>
					<dim>1</dim>
					<dim>1</dim>
				</port>
			</output>
		</layer>
		<layer id="120" name="Conv_84/WithoutBiases" type="Convolution" version="opset1">
			<data auto_pad="explicit" dilations="1,1" pads_begin="0,0" pads_end="0,0" strides="1,1"/>
			<input>
				<port id="0">
					<dim>1</dim>
					<dim>384</dim>
					<dim>32</dim>
					<dim>32</dim>
				</port>
				<port id="1">
					<dim>64</dim>
					<dim>384</dim>
					<dim>1</dim>
					<dim>1</dim>
				</port>
			</input>
			<output>
				<port id="2" precision="FP32">
					<dim>1</dim>
					<dim>64</dim>
					<dim>32</dim>
					<dim>32</dim>
				</port>
			</output>
		</layer>
		<layer id="121" name="Conv_84/Dims999317001/EltwiseUnsqueeze17217_const" type="Const" version="opset1">
			<data element_type="f32" offset="515144" shape="1,64,1,1" size="256"/>
			<output>
				<port id="0" precision="FP32">
					<dim>1</dim>
					<dim>64</dim>
					<dim>1</dim>
					<dim>1</dim>
				</port>
			</output>
		</layer>
		<layer id="122" name="Conv_84" type="Add" version="opset1">
			<data auto_broadcast="numpy"/>
			<input>
				<port id="0">
					<dim>1</dim>
					<dim>64</dim>
					<dim>32</dim>
					<dim>32</dim>
				</port>
				<port id="1">
					<dim>1</dim>
					<dim>64</dim>
					<dim>1</dim>
					<dim>1</dim>
				</port>
			</input>
			<output>
				<port id="2" names="1300" precision="FP32">
					<dim>1</dim>
					<dim>64</dim>
					<dim>32</dim>
					<dim>32</dim>
				</port>
			</output>
		</layer>
		<layer id="123" name="Add_85" type="Add" version="opset1">
			<data auto_broadcast="numpy"/>
			<input>
				<port id="0">
					<dim>1</dim>
					<dim>64</dim>
					<dim>32</dim>
					<dim>32</dim>
				</port>
				<port id="1">
					<dim>1</dim>
					<dim>64</dim>
					<dim>32</dim>
					<dim>32</dim>
				</port>
			</input>
			<output>
				<port id="2" names="460" precision="FP32">
					<dim>1</dim>
					<dim>64</dim>
					<dim>32</dim>
					<dim>32</dim>
				</port>
			</output>
		</layer>
		<layer id="124" name="1304/Output_0/Data__const" type="Const" version="opset1">
			<data element_type="f32" offset="515400" shape="384,64,1,1" size="98304"/>
			<output>
				<port id="0" names="1304" precision="FP32">
					<dim>384</dim>
					<dim>64</dim>
					<dim>1</dim>
					<dim>1</dim>
				</port>
			</output>
		</layer>
		<layer id="125" name="Conv_86/WithoutBiases" type="Convolution" version="opset1">
			<data auto_pad="explicit" dilations="1,1" pads_begin="0,0" pads_end="0,0" strides="1,1"/>
			<input>
				<port id="0">
					<dim>1</dim>
					<dim>64</dim>
					<dim>32</dim>
					<dim>32</dim>
				</port>
				<port id="1">
					<dim>384</dim>
					<dim>64</dim>
					<dim>1</dim>
					<dim>1</dim>
				</port>
			</input>
			<output>
				<port id="2" precision="FP32">
					<dim>1</dim>
					<dim>384</dim>
					<dim>32</dim>
					<dim>32</dim>
				</port>
			</output>
		</layer>
		<layer id="126" name="Conv_86/Dims1008917017/EltwiseUnsqueeze17281_const" type="Const" version="opset1">
			<data element_type="f32" offset="613704" shape="1,384,1,1" size="1536"/>
			<output>
				<port id="0" precision="FP32">
					<dim>1</dim>
					<dim>384</dim>
					<dim>1</dim>
					<dim>1</dim>
				</port>
			</output>
		</layer>
		<layer id="127" name="Conv_86" type="Add" version="opset1">
			<data auto_broadcast="numpy"/>
			<input>
				<port id="0">
					<dim>1</dim>
					<dim>384</dim>
					<dim>32</dim>
					<dim>32</dim>
				</port>
				<port id="1">
					<dim>1</dim>
					<dim>384</dim>
					<dim>1</dim>
					<dim>1</dim>
				</port>
			</input>
			<output>
				<port id="2" names="1303" precision="FP32">
					<dim>1</dim>
					<dim>384</dim>
					<dim>32</dim>
					<dim>32</dim>
				</port>
			</output>
		</layer>
		<layer id="128" name="Clip_89" type="Clamp" version="opset1">
			<data max="6.0" min="0.0"/>
			<input>
				<port id="0">
					<dim>1</dim>
					<dim>384</dim>
					<dim>32</dim>
					<dim>32</dim>
				</port>
			</input>
			<output>
				<port id="1" names="465" precision="FP32">
					<dim>1</dim>
					<dim>384</dim>
					<dim>32</dim>
					<dim>32</dim>
				</port>
			</output>
		</layer>
		<layer id="129" name="3702737030_const" type="Const" version="opset1">
			<data element_type="f32" offset="615240" shape="384,1,1,3,3" size="13824"/>
			<output>
				<port id="0" names="1307" precision="FP32">
					<dim>384</dim>
					<dim>1</dim>
					<dim>1</dim>
					<dim>3</dim>
					<dim>3</dim>
				</port>
			</output>
		</layer>
		<layer id="130" name="Conv_90/WithoutBiases" type="GroupConvolution" version="opset1">
			<data auto_pad="explicit" dilations="1,1" pads_begin="1,1" pads_end="1,1" strides="1,1"/>
			<input>
				<port id="0">
					<dim>1</dim>
					<dim>384</dim>
					<dim>32</dim>
					<dim>32</dim>
				</port>
				<port id="1">
					<dim>384</dim>
					<dim>1</dim>
					<dim>1</dim>
					<dim>3</dim>
					<dim>3</dim>
				</port>
			</input>
			<output>
				<port id="2" precision="FP32">
					<dim>1</dim>
					<dim>384</dim>
					<dim>32</dim>
					<dim>32</dim>
				</port>
			</output>
		</layer>
		<layer id="131" name="Conv_90/Dims988516983/EltwiseUnsqueeze17145_const" type="Const" version="opset1">
			<data element_type="f32" offset="629064" shape="1,384,1,1" size="1536"/>
			<output>
				<port id="0" precision="FP32">
					<dim>1</dim>
					<dim>384</dim>
					<dim>1</dim>
					<dim>1</dim>
				</port>
			</output>
		</layer>
		<layer id="132" name="Conv_90" type="Add" version="opset1">
			<data auto_broadcast="numpy"/>
			<input>
				<port id="0">
					<dim>1</dim>
					<dim>384</dim>
					<dim>32</dim>
					<dim>32</dim>
				</port>
				<port id="1">
					<dim>1</dim>
					<dim>384</dim>
					<dim>1</dim>
					<dim>1</dim>
				</port>
			</input>
			<output>
				<port id="2" names="1306" precision="FP32">
					<dim>1</dim>
					<dim>384</dim>
					<dim>32</dim>
					<dim>32</dim>
				</port>
			</output>
		</layer>
		<layer id="133" name="Clip_93" type="Clamp" version="opset1">
			<data max="6.0" min="0.0"/>
			<input>
				<port id="0">
					<dim>1</dim>
					<dim>384</dim>
					<dim>32</dim>
					<dim>32</dim>
				</port>
			</input>
			<output>
				<port id="1" names="470" precision="FP32">
					<dim>1</dim>
					<dim>384</dim>
					<dim>32</dim>
					<dim>32</dim>
				</port>
			</output>
		</layer>
		<layer id="134" name="1310/Output_0/Data__const" type="Const" version="opset1">
			<data element_type="f32" offset="630600" shape="64,384,1,1" size="98304"/>
			<output>
				<port id="0" names="1310" precision="FP32">
					<dim>64</dim>
					<dim>384</dim>
					<dim>1</dim>
					<dim>1</dim>
				</port>
			</output>
		</layer>
		<layer id="135" name="Conv_94/WithoutBiases" type="Convolution" version="opset1">
			<data auto_pad="explicit" dilations="1,1" pads_begin="0,0" pads_end="0,0" strides="1,1"/>
			<input>
				<port id="0">
					<dim>1</dim>
					<dim>384</dim>
					<dim>32</dim>
					<dim>32</dim>
				</port>
				<port id="1">
					<dim>64</dim>
					<dim>384</dim>
					<dim>1</dim>
					<dim>1</dim>
				</port>
			</input>
			<output>
				<port id="2" precision="FP32">
					<dim>1</dim>
					<dim>64</dim>
					<dim>32</dim>
					<dim>32</dim>
				</port>
			</output>
		</layer>
		<layer id="136" name="Conv_94/Dims995716995/EltwiseUnsqueeze17193_const" type="Const" version="opset1">
			<data element_type="f32" offset="728904" shape="1,64,1,1" size="256"/>
			<output>
				<port id="0" precision="FP32">
					<dim>1</dim>
					<dim>64</dim>
					<dim>1</dim>
					<dim>1</dim>
				</port>
			</output>
		</layer>
		<layer id="137" name="Conv_94" type="Add" version="opset1">
			<data auto_broadcast="numpy"/>
			<input>
				<port id="0">
					<dim>1</dim>
					<dim>64</dim>
					<dim>32</dim>
					<dim>32</dim>
				</port>
				<port id="1">
					<dim>1</dim>
					<dim>64</dim>
					<dim>1</dim>
					<dim>1</dim>
				</port>
			</input>
			<output>
				<port id="2" names="1309" precision="FP32">
					<dim>1</dim>
					<dim>64</dim>
					<dim>32</dim>
					<dim>32</dim>
				</port>
			</output>
		</layer>
		<layer id="138" name="Add_95" type="Add" version="opset1">
			<data auto_broadcast="numpy"/>
			<input>
				<port id="0">
					<dim>1</dim>
					<dim>64</dim>
					<dim>32</dim>
					<dim>32</dim>
				</port>
				<port id="1">
					<dim>1</dim>
					<dim>64</dim>
					<dim>32</dim>
					<dim>32</dim>
				</port>
			</input>
			<output>
				<port id="2" names="473" precision="FP32">
					<dim>1</dim>
					<dim>64</dim>
					<dim>32</dim>
					<dim>32</dim>
				</port>
			</output>
		</layer>
		<layer id="139" name="1313/Output_0/Data__const" type="Const" version="opset1">
			<data element_type="f32" offset="729160" shape="384,64,1,1" size="98304"/>
			<output>
				<port id="0" names="1313" precision="FP32">
					<dim>384</dim>
					<dim>64</dim>
					<dim>1</dim>
					<dim>1</dim>
				</port>
			</output>
		</layer>
		<layer id="140" name="Conv_96/WithoutBiases" type="Convolution" version="opset1">
			<data auto_pad="explicit" dilations="1,1" pads_begin="0,0" pads_end="0,0" strides="1,1"/>
			<input>
				<port id="0">
					<dim>1</dim>
					<dim>64</dim>
					<dim>32</dim>
					<dim>32</dim>
				</port>
				<port id="1">
					<dim>384</dim>
					<dim>64</dim>
					<dim>1</dim>
					<dim>1</dim>
				</port>
			</input>
			<output>
				<port id="2" precision="FP32">
					<dim>1</dim>
					<dim>384</dim>
					<dim>32</dim>
					<dim>32</dim>
				</port>
			</output>
		</layer>
		<layer id="141" name="Conv_96/Dims1023317041/EltwiseUnsqueeze17377_const" type="Const" version="opset1">
			<data element_type="f32" offset="827464" shape="1,384,1,1" size="1536"/>
			<output>
				<port id="0" precision="FP32">
					<dim>1</dim>
					<dim>384</dim>
					<dim>1</dim>
					<dim>1</dim>
				</port>
			</output>
		</layer>
		<layer id="142" name="Conv_96" type="Add" version="opset1">
			<data auto_broadcast="numpy"/>
			<input>
				<port id="0">
					<dim>1</dim>
					<dim>384</dim>
					<dim>32</dim>
					<dim>32</dim>
				</port>
				<port id="1">
					<dim>1</dim>
					<dim>384</dim>
					<dim>1</dim>
					<dim>1</dim>
				</port>
			</input>
			<output>
				<port id="2" names="1312" precision="FP32">
					<dim>1</dim>
					<dim>384</dim>
					<dim>32</dim>
					<dim>32</dim>
				</port>
			</output>
		</layer>
		<layer id="143" name="Clip_99" type="Clamp" version="opset1">
			<data max="6.0" min="0.0"/>
			<input>
				<port id="0">
					<dim>1</dim>
					<dim>384</dim>
					<dim>32</dim>
					<dim>32</dim>
				</port>
			</input>
			<output>
				<port id="1" names="478" precision="FP32">
					<dim>1</dim>
					<dim>384</dim>
					<dim>32</dim>
					<dim>32</dim>
				</port>
			</output>
		</layer>
		<layer id="144" name="3704337046_const" type="Const" version="opset1">
			<data element_type="f32" offset="829000" shape="384,1,1,3,3" size="13824"/>
			<output>
				<port id="0" names="1316" precision="FP32">
					<dim>384</dim>
					<dim>1</dim>
					<dim>1</dim>
					<dim>3</dim>
					<dim>3</dim>
				</port>
			</output>
		</layer>
		<layer id="145" name="Conv_100/WithoutBiases" type="GroupConvolution" version="opset1">
			<data auto_pad="explicit" dilations="1,1" pads_begin="1,1" pads_end="1,1" strides="1,1"/>
			<input>
				<port id="0">
					<dim>1</dim>
					<dim>384</dim>
					<dim>32</dim>
					<dim>32</dim>
				</port>
				<port id="1">
					<dim>384</dim>
					<dim>1</dim>
					<dim>1</dim>
					<dim>3</dim>
					<dim>3</dim>
				</port>
			</input>
			<output>
				<port id="2" precision="FP32">
					<dim>1</dim>
					<dim>384</dim>
					<dim>32</dim>
					<dim>32</dim>
				</port>
			</output>
		</layer>
		<layer id="146" name="Conv_100/Dims996316996/EltwiseUnsqueeze17197_const" type="Const" version="opset1">
			<data element_type="f32" offset="842824" shape="1,384,1,1" size="1536"/>
			<output>
				<port id="0" precision="FP32">
					<dim>1</dim>
					<dim>384</dim>
					<dim>1</dim>
					<dim>1</dim>
				</port>
			</output>
		</layer>
		<layer id="147" name="Conv_100" type="Add" version="opset1">
			<data auto_broadcast="numpy"/>
			<input>
				<port id="0">
					<dim>1</dim>
					<dim>384</dim>
					<dim>32</dim>
					<dim>32</dim>
				</port>
				<port id="1">
					<dim>1</dim>
					<dim>384</dim>
					<dim>1</dim>
					<dim>1</dim>
				</port>
			</input>
			<output>
				<port id="2" names="1315" precision="FP32">
					<dim>1</dim>
					<dim>384</dim>
					<dim>32</dim>
					<dim>32</dim>
				</port>
			</output>
		</layer>
		<layer id="148" name="Clip_103" type="Clamp" version="opset1">
			<data max="6.0" min="0.0"/>
			<input>
				<port id="0">
					<dim>1</dim>
					<dim>384</dim>
					<dim>32</dim>
					<dim>32</dim>
				</port>
			</input>
			<output>
				<port id="1" names="483" precision="FP32">
					<dim>1</dim>
					<dim>384</dim>
					<dim>32</dim>
					<dim>32</dim>
				</port>
			</output>
		</layer>
		<layer id="149" name="1319/Output_0/Data__const" type="Const" version="opset1">
			<data element_type="f32" offset="844360" shape="64,384,1,1" size="98304"/>
			<output>
				<port id="0" names="1319" precision="FP32">
					<dim>64</dim>
					<dim>384</dim>
					<dim>1</dim>
					<dim>1</dim>
				</port>
			</output>
		</layer>
		<layer id="150" name="Conv_104/WithoutBiases" type="Convolution" version="opset1">
			<data auto_pad="explicit" dilations="1,1" pads_begin="0,0" pads_end="0,0" strides="1,1"/>
			<input>
				<port id="0">
					<dim>1</dim>
					<dim>384</dim>
					<dim>32</dim>
					<dim>32</dim>
				</port>
				<port id="1">
					<dim>64</dim>
					<dim>384</dim>
					<dim>1</dim>
					<dim>1</dim>
				</port>
			</input>
			<output>
				<port id="2" precision="FP32">
					<dim>1</dim>
					<dim>64</dim>
					<dim>32</dim>
					<dim>32</dim>
				</port>
			</output>
		</layer>
		<layer id="151" name="Conv_104/Dims1005317011/EltwiseUnsqueeze17257_const" type="Const" version="opset1">
			<data element_type="f32" offset="942664" shape="1,64,1,1" size="256"/>
			<output>
				<port id="0" precision="FP32">
					<dim>1</dim>
					<dim>64</dim>
					<dim>1</dim>
					<dim>1</dim>
				</port>
			</output>
		</layer>
		<layer id="152" name="Conv_104" type="Add" version="opset1">
			<data auto_broadcast="numpy"/>
			<input>
				<port id="0">
					<dim>1</dim>
					<dim>64</dim>
					<dim>32</dim>
					<dim>32</dim>
				</port>
				<port id="1">
					<dim>1</dim>
					<dim>64</dim>
					<dim>1</dim>
					<dim>1</dim>
				</port>
			</input>
			<output>
				<port id="2" names="1318" precision="FP32">
					<dim>1</dim>
					<dim>64</dim>
					<dim>32</dim>
					<dim>32</dim>
				</port>
			</output>
		</layer>
		<layer id="153" name="Add_105" type="Add" version="opset1">
			<data auto_broadcast="numpy"/>
			<input>
				<port id="0">
					<dim>1</dim>
					<dim>64</dim>
					<dim>32</dim>
					<dim>32</dim>
				</port>
				<port id="1">
					<dim>1</dim>
					<dim>64</dim>
					<dim>32</dim>
					<dim>32</dim>
				</port>
			</input>
			<output>
				<port id="2" names="486" precision="FP32">
					<dim>1</dim>
					<dim>64</dim>
					<dim>32</dim>
					<dim>32</dim>
				</port>
			</output>
		</layer>
		<layer id="154" name="1322/Output_0/Data__const" type="Const" version="opset1">
			<data element_type="f32" offset="942920" shape="384,64,1,1" size="98304"/>
			<output>
				<port id="0" names="1322" precision="FP32">
					<dim>384</dim>
					<dim>64</dim>
					<dim>1</dim>
					<dim>1</dim>
				</port>
			</output>
		</layer>
		<layer id="155" name="Conv_106/WithoutBiases" type="Convolution" version="opset1">
			<data auto_pad="explicit" dilations="1,1" pads_begin="0,0" pads_end="0,0" strides="1,1"/>
			<input>
				<port id="0">
					<dim>1</dim>
					<dim>64</dim>
					<dim>32</dim>
					<dim>32</dim>
				</port>
				<port id="1">
					<dim>384</dim>
					<dim>64</dim>
					<dim>1</dim>
					<dim>1</dim>
				</port>
			</input>
			<output>
				<port id="2" precision="FP32">
					<dim>1</dim>
					<dim>384</dim>
					<dim>32</dim>
					<dim>32</dim>
				</port>
			</output>
		</layer>
		<layer id="156" name="Conv_106/Dims1017317031/EltwiseUnsqueeze17337_const" type="Const" version="opset1">
			<data element_type="f32" offset="1041224" shape="1,384,1,1" size="1536"/>
			<output>
				<port id="0" precision="FP32">
					<dim>1</dim>
					<dim>384</dim>
					<dim>1</dim>
					<dim>1</dim>
				</port>
			</output>
		</layer>
		<layer id="157" name="Conv_106" type="Add" version="opset1">
			<data auto_broadcast="numpy"/>
			<input>
				<port id="0">
					<dim>1</dim>
					<dim>384</dim>
					<dim>32</dim>
					<dim>32</dim>
				</port>
				<port id="1">
					<dim>1</dim>
					<dim>384</dim>
					<dim>1</dim>
					<dim>1</dim>
				</port>
			</input>
			<output>
				<port id="2" names="1321" precision="FP32">
					<dim>1</dim>
					<dim>384</dim>
					<dim>32</dim>
					<dim>32</dim>
				</port>
			</output>
		</layer>
		<layer id="158" name="Clip_109" type="Clamp" version="opset1">
			<data max="6.0" min="0.0"/>
			<input>
				<port id="0">
					<dim>1</dim>
					<dim>384</dim>
					<dim>32</dim>
					<dim>32</dim>
				</port>
			</input>
			<output>
				<port id="1" names="491" precision="FP32">
					<dim>1</dim>
					<dim>384</dim>
					<dim>32</dim>
					<dim>32</dim>
				</port>
			</output>
		</layer>
		<layer id="159" name="3703137034_const" type="Const" version="opset1">
			<data element_type="f32" offset="1042760" shape="384,1,1,3,3" size="13824"/>
			<output>
				<port id="0" names="1325" precision="FP32">
					<dim>384</dim>
					<dim>1</dim>
					<dim>1</dim>
					<dim>3</dim>
					<dim>3</dim>
				</port>
			</output>
		</layer>
		<layer id="160" name="Conv_110/WithoutBiases" type="GroupConvolution" version="opset1">
			<data auto_pad="explicit" dilations="1,1" pads_begin="1,1" pads_end="1,1" strides="1,1"/>
			<input>
				<port id="0">
					<dim>1</dim>
					<dim>384</dim>
					<dim>32</dim>
					<dim>32</dim>
				</port>
				<port id="1">
					<dim>384</dim>
					<dim>1</dim>
					<dim>1</dim>
					<dim>3</dim>
					<dim>3</dim>
				</port>
			</input>
			<output>
				<port id="2" precision="FP32">
					<dim>1</dim>
					<dim>384</dim>
					<dim>32</dim>
					<dim>32</dim>
				</port>
			</output>
		</layer>
		<layer id="161" name="Conv_110/Dims989116984/EltwiseUnsqueeze17149_const" type="Const" version="opset1">
			<data element_type="f32" offset="1056584" shape="1,384,1,1" size="1536"/>
			<output>
				<port id="0" precision="FP32">
					<dim>1</dim>
					<dim>384</dim>
					<dim>1</dim>
					<dim>1</dim>
				</port>
			</output>
		</layer>
		<layer id="162" name="Conv_110" type="Add" version="opset1">
			<data auto_broadcast="numpy"/>
			<input>
				<port id="0">
					<dim>1</dim>
					<dim>384</dim>
					<dim>32</dim>
					<dim>32</dim>
				</port>
				<port id="1">
					<dim>1</dim>
					<dim>384</dim>
					<dim>1</dim>
					<dim>1</dim>
				</port>
			</input>
			<output>
				<port id="2" names="1324" precision="FP32">
					<dim>1</dim>
					<dim>384</dim>
					<dim>32</dim>
					<dim>32</dim>
				</port>
			</output>
		</layer>
		<layer id="163" name="Clip_113" type="Clamp" version="opset1">
			<data max="6.0" min="0.0"/>
			<input>
				<port id="0">
					<dim>1</dim>
					<dim>384</dim>
					<dim>32</dim>
					<dim>32</dim>
				</port>
			</input>
			<output>
				<port id="1" names="496" precision="FP32">
					<dim>1</dim>
					<dim>384</dim>
					<dim>32</dim>
					<dim>32</dim>
				</port>
			</output>
		</layer>
		<layer id="164" name="1328/Output_0/Data__const" type="Const" version="opset1">
			<data element_type="f32" offset="1058120" shape="96,384,1,1" size="147456"/>
			<output>
				<port id="0" names="1328" precision="FP32">
					<dim>96</dim>
					<dim>384</dim>
					<dim>1</dim>
					<dim>1</dim>
				</port>
			</output>
		</layer>
		<layer id="165" name="Conv_114/WithoutBiases" type="Convolution" version="opset1">
			<data auto_pad="explicit" dilations="1,1" pads_begin="0,0" pads_end="0,0" strides="1,1"/>
			<input>
				<port id="0">
					<dim>1</dim>
					<dim>384</dim>
					<dim>32</dim>
					<dim>32</dim>
				</port>
				<port id="1">
					<dim>96</dim>
					<dim>384</dim>
					<dim>1</dim>
					<dim>1</dim>
				</port>
			</input>
			<output>
				<port id="2" precision="FP32">
					<dim>1</dim>
					<dim>96</dim>
					<dim>32</dim>
					<dim>32</dim>
				</port>
			</output>
		</layer>
		<layer id="166" name="Conv_114/Dims1008317016/EltwiseUnsqueeze17277_const" type="Const" version="opset1">
			<data element_type="f32" offset="1205576" shape="1,96,1,1" size="384"/>
			<output>
				<port id="0" precision="FP32">
					<dim>1</dim>
					<dim>96</dim>
					<dim>1</dim>
					<dim>1</dim>
				</port>
			</output>
		</layer>
		<layer id="167" name="Conv_114" type="Add" version="opset1">
			<data auto_broadcast="numpy"/>
			<input>
				<port id="0">
					<dim>1</dim>
					<dim>96</dim>
					<dim>32</dim>
					<dim>32</dim>
				</port>
				<port id="1">
					<dim>1</dim>
					<dim>96</dim>
					<dim>1</dim>
					<dim>1</dim>
				</port>
			</input>
			<output>
				<port id="2" names="1327" precision="FP32">
					<dim>1</dim>
					<dim>96</dim>
					<dim>32</dim>
					<dim>32</dim>
				</port>
			</output>
		</layer>
		<layer id="168" name="1331/Output_0/Data__const" type="Const" version="opset1">
			<data element_type="f32" offset="1205960" shape="576,96,1,1" size="221184"/>
			<output>
				<port id="0" names="1331" precision="FP32">
					<dim>576</dim>
					<dim>96</dim>
					<dim>1</dim>
					<dim>1</dim>
				</port>
			</output>
		</layer>
		<layer id="169" name="Conv_115/WithoutBiases" type="Convolution" version="opset1">
			<data auto_pad="explicit" dilations="1,1" pads_begin="0,0" pads_end="0,0" strides="1,1"/>
			<input>
				<port id="0">
					<dim>1</dim>
					<dim>96</dim>
					<dim>32</dim>
					<dim>32</dim>
				</port>
				<port id="1">
					<dim>576</dim>
					<dim>96</dim>
					<dim>1</dim>
					<dim>1</dim>
				</port>
			</input>
			<output>
				<port id="2" precision="FP32">
					<dim>1</dim>
					<dim>576</dim>
					<dim>32</dim>
					<dim>32</dim>
				</port>
			</output>
		</layer>
		<layer id="170" name="Conv_115/Dims998717000/EltwiseUnsqueeze17213_const" type="Const" version="opset1">
			<data element_type="f32" offset="1427144" shape="1,576,1,1" size="2304"/>
			<output>
				<port id="0" precision="FP32">
					<dim>1</dim>
					<dim>576</dim>
					<dim>1</dim>
					<dim>1</dim>
				</port>
			</output>
		</layer>
		<layer id="171" name="Conv_115" type="Add" version="opset1">
			<data auto_broadcast="numpy"/>
			<input>
				<port id="0">
					<dim>1</dim>
					<dim>576</dim>
					<dim>32</dim>
					<dim>32</dim>
				</port>
				<port id="1">
					<dim>1</dim>
					<dim>576</dim>
					<dim>1</dim>
					<dim>1</dim>
				</port>
			</input>
			<output>
				<port id="2" names="1330" precision="FP32">
					<dim>1</dim>
					<dim>576</dim>
					<dim>32</dim>
					<dim>32</dim>
				</port>
			</output>
		</layer>
		<layer id="172" name="Clip_118" type="Clamp" version="opset1">
			<data max="6.0" min="0.0"/>
			<input>
				<port id="0">
					<dim>1</dim>
					<dim>576</dim>
					<dim>32</dim>
					<dim>32</dim>
				</port>
			</input>
			<output>
				<port id="1" names="503" precision="FP32">
					<dim>1</dim>
					<dim>576</dim>
					<dim>32</dim>
					<dim>32</dim>
				</port>
			</output>
		</layer>
		<layer id="173" name="3707937082_const" type="Const" version="opset1">
			<data element_type="f32" offset="1429448" shape="576,1,1,3,3" size="20736"/>
			<output>
				<port id="0" names="1334" precision="FP32">
					<dim>576</dim>
					<dim>1</dim>
					<dim>1</dim>
					<dim>3</dim>
					<dim>3</dim>
				</port>
			</output>
		</layer>
		<layer id="174" name="Conv_119/WithoutBiases" type="GroupConvolution" version="opset1">
			<data auto_pad="explicit" dilations="1,1" pads_begin="1,1" pads_end="1,1" strides="1,1"/>
			<input>
				<port id="0">
					<dim>1</dim>
					<dim>576</dim>
					<dim>32</dim>
					<dim>32</dim>
				</port>
				<port id="1">
					<dim>576</dim>
					<dim>1</dim>
					<dim>1</dim>
					<dim>3</dim>
					<dim>3</dim>
				</port>
			</input>
			<output>
				<port id="2" precision="FP32">
					<dim>1</dim>
					<dim>576</dim>
					<dim>32</dim>
					<dim>32</dim>
				</port>
			</output>
		</layer>
		<layer id="175" name="Conv_119/Dims1009517018/EltwiseUnsqueeze17285_const" type="Const" version="opset1">
			<data element_type="f32" offset="1450184" shape="1,576,1,1" size="2304"/>
			<output>
				<port id="0" precision="FP32">
					<dim>1</dim>
					<dim>576</dim>
					<dim>1</dim>
					<dim>1</dim>
				</port>
			</output>
		</layer>
		<layer id="176" name="Conv_119" type="Add" version="opset1">
			<data auto_broadcast="numpy"/>
			<input>
				<port id="0">
					<dim>1</dim>
					<dim>576</dim>
					<dim>32</dim>
					<dim>32</dim>
				</port>
				<port id="1">
					<dim>1</dim>
					<dim>576</dim>
					<dim>1</dim>
					<dim>1</dim>
				</port>
			</input>
			<output>
				<port id="2" names="1333" precision="FP32">
					<dim>1</dim>
					<dim>576</dim>
					<dim>32</dim>
					<dim>32</dim>
				</port>
			</output>
		</layer>
		<layer id="177" name="Clip_122" type="Clamp" version="opset1">
			<data max="6.0" min="0.0"/>
			<input>
				<port id="0">
					<dim>1</dim>
					<dim>576</dim>
					<dim>32</dim>
					<dim>32</dim>
				</port>
			</input>
			<output>
				<port id="1" names="508" precision="FP32">
					<dim>1</dim>
					<dim>576</dim>
					<dim>32</dim>
					<dim>32</dim>
				</port>
			</output>
		</layer>
		<layer id="178" name="1337/Output_0/Data__const" type="Const" version="opset1">
			<data element_type="f32" offset="1452488" shape="96,576,1,1" size="221184"/>
			<output>
				<port id="0" names="1337" precision="FP32">
					<dim>96</dim>
					<dim>576</dim>
					<dim>1</dim>
					<dim>1</dim>
				</port>
			</output>
		</layer>
		<layer id="179" name="Conv_123/WithoutBiases" type="Convolution" version="opset1">
			<data auto_pad="explicit" dilations="1,1" pads_begin="0,0" pads_end="0,0" strides="1,1"/>
			<input>
				<port id="0">
					<dim>1</dim>
					<dim>576</dim>
					<dim>32</dim>
					<dim>32</dim>
				</port>
				<port id="1">
					<dim>96</dim>
					<dim>576</dim>
					<dim>1</dim>
					<dim>1</dim>
				</port>
			</input>
			<output>
				<port id="2" precision="FP32">
					<dim>1</dim>
					<dim>96</dim>
					<dim>32</dim>
					<dim>32</dim>
				</port>
			</output>
		</layer>
		<layer id="180" name="Conv_123/Dims1021517038/EltwiseUnsqueeze17365_const" type="Const" version="opset1">
			<data element_type="f32" offset="1673672" shape="1,96,1,1" size="384"/>
			<output>
				<port id="0" precision="FP32">
					<dim>1</dim>
					<dim>96</dim>
					<dim>1</dim>
					<dim>1</dim>
				</port>
			</output>
		</layer>
		<layer id="181" name="Conv_123" type="Add" version="opset1">
			<data auto_broadcast="numpy"/>
			<input>
				<port id="0">
					<dim>1</dim>
					<dim>96</dim>
					<dim>32</dim>
					<dim>32</dim>
				</port>
				<port id="1">
					<dim>1</dim>
					<dim>96</dim>
					<dim>1</dim>
					<dim>1</dim>
				</port>
			</input>
			<output>
				<port id="2" names="1336" precision="FP32">
					<dim>1</dim>
					<dim>96</dim>
					<dim>32</dim>
					<dim>32</dim>
				</port>
			</output>
		</layer>
		<layer id="182" name="Add_124" type="Add" version="opset1">
			<data auto_broadcast="numpy"/>
			<input>
				<port id="0">
					<dim>1</dim>
					<dim>96</dim>
					<dim>32</dim>
					<dim>32</dim>
				</port>
				<port id="1">
					<dim>1</dim>
					<dim>96</dim>
					<dim>32</dim>
					<dim>32</dim>
				</port>
			</input>
			<output>
				<port id="2" names="511" precision="FP32">
					<dim>1</dim>
					<dim>96</dim>
					<dim>32</dim>
					<dim>32</dim>
				</port>
			</output>
		</layer>
		<layer id="183" name="1340/Output_0/Data__const" type="Const" version="opset1">
			<data element_type="f32" offset="1674056" shape="576,96,1,1" size="221184"/>
			<output>
				<port id="0" names="1340" precision="FP32">
					<dim>576</dim>
					<dim>96</dim>
					<dim>1</dim>
					<dim>1</dim>
				</port>
			</output>
		</layer>
		<layer id="184" name="Conv_125/WithoutBiases" type="Convolution" version="opset1">
			<data auto_pad="explicit" dilations="1,1" pads_begin="0,0" pads_end="0,0" strides="1,1"/>
			<input>
				<port id="0">
					<dim>1</dim>
					<dim>96</dim>
					<dim>32</dim>
					<dim>32</dim>
				</port>
				<port id="1">
					<dim>576</dim>
					<dim>96</dim>
					<dim>1</dim>
					<dim>1</dim>
				</port>
			</input>
			<output>
				<port id="2" precision="FP32">
					<dim>1</dim>
					<dim>576</dim>
					<dim>32</dim>
					<dim>32</dim>
				</port>
			</output>
		</layer>
		<layer id="185" name="Conv_125/Dims1017917032/EltwiseUnsqueeze17341_const" type="Const" version="opset1">
			<data element_type="f32" offset="1895240" shape="1,576,1,1" size="2304"/>
			<output>
				<port id="0" precision="FP32">
					<dim>1</dim>
					<dim>576</dim>
					<dim>1</dim>
					<dim>1</dim>
				</port>
			</output>
		</layer>
		<layer id="186" name="Conv_125" type="Add" version="opset1">
			<data auto_broadcast="numpy"/>
			<input>
				<port id="0">
					<dim>1</dim>
					<dim>576</dim>
					<dim>32</dim>
					<dim>32</dim>
				</port>
				<port id="1">
					<dim>1</dim>
					<dim>576</dim>
					<dim>1</dim>
					<dim>1</dim>
				</port>
			</input>
			<output>
				<port id="2" names="1339" precision="FP32">
					<dim>1</dim>
					<dim>576</dim>
					<dim>32</dim>
					<dim>32</dim>
				</port>
			</output>
		</layer>
		<layer id="187" name="Clip_128" type="Clamp" version="opset1">
			<data max="6.0" min="0.0"/>
			<input>
				<port id="0">
					<dim>1</dim>
					<dim>576</dim>
					<dim>32</dim>
					<dim>32</dim>
				</port>
			</input>
			<output>
				<port id="1" names="516" precision="FP32">
					<dim>1</dim>
					<dim>576</dim>
					<dim>32</dim>
					<dim>32</dim>
				</port>
			</output>
		</layer>
		<layer id="188" name="3709937102_const" type="Const" version="opset1">
			<data element_type="f32" offset="1897544" shape="576,1,1,3,3" size="20736"/>
			<output>
				<port id="0" names="1343" precision="FP32">
					<dim>576</dim>
					<dim>1</dim>
					<dim>1</dim>
					<dim>3</dim>
					<dim>3</dim>
				</port>
			</output>
		</layer>
		<layer id="189" name="Conv_129/WithoutBiases" type="GroupConvolution" version="opset1">
			<data auto_pad="explicit" dilations="1,1" pads_begin="1,1" pads_end="1,1" strides="1,1"/>
			<input>
				<port id="0">
					<dim>1</dim>
					<dim>576</dim>
					<dim>32</dim>
					<dim>32</dim>
				</port>
				<port id="1">
					<dim>576</dim>
					<dim>1</dim>
					<dim>1</dim>
					<dim>3</dim>
					<dim>3</dim>
				</port>
			</input>
			<output>
				<port id="2" precision="FP32">
					<dim>1</dim>
					<dim>576</dim>
					<dim>32</dim>
					<dim>32</dim>
				</port>
			</output>
		</layer>
		<layer id="190" name="Conv_129/Dims1019117034/EltwiseUnsqueeze17349_const" type="Const" version="opset1">
			<data element_type="f32" offset="1918280" shape="1,576,1,1" size="2304"/>
			<output>
				<port id="0" precision="FP32">
					<dim>1</dim>
					<dim>576</dim>
					<dim>1</dim>
					<dim>1</dim>
				</port>
			</output>
		</layer>
		<layer id="191" name="Conv_129" type="Add" version="opset1">
			<data auto_broadcast="numpy"/>
			<input>
				<port id="0">
					<dim>1</dim>
					<dim>576</dim>
					<dim>32</dim>
					<dim>32</dim>
				</port>
				<port id="1">
					<dim>1</dim>
					<dim>576</dim>
					<dim>1</dim>
					<dim>1</dim>
				</port>
			</input>
			<output>
				<port id="2" names="1342" precision="FP32">
					<dim>1</dim>
					<dim>576</dim>
					<dim>32</dim>
					<dim>32</dim>
				</port>
			</output>
		</layer>
		<layer id="192" name="Clip_132" type="Clamp" version="opset1">
			<data max="6.0" min="0.0"/>
			<input>
				<port id="0">
					<dim>1</dim>
					<dim>576</dim>
					<dim>32</dim>
					<dim>32</dim>
				</port>
			</input>
			<output>
				<port id="1" names="521" precision="FP32">
					<dim>1</dim>
					<dim>576</dim>
					<dim>32</dim>
					<dim>32</dim>
				</port>
			</output>
		</layer>
		<layer id="193" name="1346/Output_0/Data__const" type="Const" version="opset1">
			<data element_type="f32" offset="1920584" shape="96,576,1,1" size="221184"/>
			<output>
				<port id="0" names="1346" precision="FP32">
					<dim>96</dim>
					<dim>576</dim>
					<dim>1</dim>
					<dim>1</dim>
				</port>
			</output>
		</layer>
		<layer id="194" name="Conv_133/WithoutBiases" type="Convolution" version="opset1">
			<data auto_pad="explicit" dilations="1,1" pads_begin="0,0" pads_end="0,0" strides="1,1"/>
			<input>
				<port id="0">
					<dim>1</dim>
					<dim>576</dim>
					<dim>32</dim>
					<dim>32</dim>
				</port>
				<port id="1">
					<dim>96</dim>
					<dim>576</dim>
					<dim>1</dim>
					<dim>1</dim>
				</port>
			</input>
			<output>
				<port id="2" precision="FP32">
					<dim>1</dim>
					<dim>96</dim>
					<dim>32</dim>
					<dim>32</dim>
				</port>
			</output>
		</layer>
		<layer id="195" name="Conv_133/Dims1010717020/EltwiseUnsqueeze17293_const" type="Const" version="opset1">
			<data element_type="f32" offset="2141768" shape="1,96,1,1" size="384"/>
			<output>
				<port id="0" precision="FP32">
					<dim>1</dim>
					<dim>96</dim>
					<dim>1</dim>
					<dim>1</dim>
				</port>
			</output>
		</layer>
		<layer id="196" name="Conv_133" type="Add" version="opset1">
			<data auto_broadcast="numpy"/>
			<input>
				<port id="0">
					<dim>1</dim>
					<dim>96</dim>
					<dim>32</dim>
					<dim>32</dim>
				</port>
				<port id="1">
					<dim>1</dim>
					<dim>96</dim>
					<dim>1</dim>
					<dim>1</dim>
				</port>
			</input>
			<output>
				<port id="2" names="1345" precision="FP32">
					<dim>1</dim>
					<dim>96</dim>
					<dim>32</dim>
					<dim>32</dim>
				</port>
			</output>
		</layer>
		<layer id="197" name="Add_134" type="Add" version="opset1">
			<data auto_broadcast="numpy"/>
			<input>
				<port id="0">
					<dim>1</dim>
					<dim>96</dim>
					<dim>32</dim>
					<dim>32</dim>
				</port>
				<port id="1">
					<dim>1</dim>
					<dim>96</dim>
					<dim>32</dim>
					<dim>32</dim>
				</port>
			</input>
			<output>
				<port id="2" names="524" precision="FP32">
					<dim>1</dim>
					<dim>96</dim>
					<dim>32</dim>
					<dim>32</dim>
				</port>
			</output>
		</layer>
		<layer id="198" name="3704737050_const" type="Const" version="opset1">
			<data element_type="f32" offset="2142152" shape="96,1,1,3,3" size="3456"/>
			<output>
				<port id="0" names="1385" precision="FP32">
					<dim>96</dim>
					<dim>1</dim>
					<dim>1</dim>
					<dim>3</dim>
					<dim>3</dim>
				</port>
			</output>
		</layer>
		<layer id="199" name="Conv_173/WithoutBiases" type="GroupConvolution" version="opset1">
			<data auto_pad="explicit" dilations="1,1" pads_begin="1,1" pads_end="1,1" strides="1,1"/>
			<input>
				<port id="0">
					<dim>1</dim>
					<dim>96</dim>
					<dim>32</dim>
					<dim>32</dim>
				</port>
				<port id="1">
					<dim>96</dim>
					<dim>1</dim>
					<dim>1</dim>
					<dim>3</dim>
					<dim>3</dim>
				</port>
			</input>
			<output>
				<port id="2" precision="FP32">
					<dim>1</dim>
					<dim>96</dim>
					<dim>32</dim>
					<dim>32</dim>
				</port>
			</output>
		</layer>
		<layer id="200" name="Conv_173/Dims996916997/EltwiseUnsqueeze17201_const" type="Const" version="opset1">
			<data element_type="f32" offset="2145608" shape="1,96,1,1" size="384"/>
			<output>
				<port id="0" precision="FP32">
					<dim>1</dim>
					<dim>96</dim>
					<dim>1</dim>
					<dim>1</dim>
				</port>
			</output>
		</layer>
		<layer id="201" name="Conv_173" type="Add" version="opset1">
			<data auto_broadcast="numpy"/>
			<input>
				<port id="0">
					<dim>1</dim>
					<dim>96</dim>
					<dim>32</dim>
					<dim>32</dim>
				</port>
				<port id="1">
					<dim>1</dim>
					<dim>96</dim>
					<dim>1</dim>
					<dim>1</dim>
				</port>
			</input>
			<output>
				<port id="2" names="1384" precision="FP32">
					<dim>1</dim>
					<dim>96</dim>
					<dim>32</dim>
					<dim>32</dim>
				</port>
			</output>
		</layer>
		<layer id="202" name="Relu_174" type="ReLU" version="opset1">
			<input>
				<port id="0">
					<dim>1</dim>
					<dim>96</dim>
					<dim>32</dim>
					<dim>32</dim>
				</port>
			</input>
			<output>
				<port id="1" names="577" precision="FP32">
					<dim>1</dim>
					<dim>96</dim>
					<dim>32</dim>
					<dim>32</dim>
				</port>
			</output>
		</layer>
		<layer id="203" name="bbox_head.cls_convs.0.3.weight/Output_0/Data__const" type="Const" version="opset1">
			<data element_type="f32" offset="2145992" shape="16,96,1,1" size="6144"/>
			<output>
				<port id="0" names="bbox_head.cls_convs.0.3.weight" precision="FP32">
					<dim>16</dim>
					<dim>96</dim>
					<dim>1</dim>
					<dim>1</dim>
				</port>
			</output>
		</layer>
		<layer id="204" name="Conv_175/WithoutBiases" type="Convolution" version="opset1">
			<data auto_pad="explicit" dilations="1,1" pads_begin="0,0" pads_end="0,0" strides="1,1"/>
			<input>
				<port id="0">
					<dim>1</dim>
					<dim>96</dim>
					<dim>32</dim>
					<dim>32</dim>
				</port>
				<port id="1">
					<dim>16</dim>
					<dim>96</dim>
					<dim>1</dim>
					<dim>1</dim>
				</port>
			</input>
			<output>
				<port id="2" precision="FP32">
					<dim>1</dim>
					<dim>16</dim>
					<dim>32</dim>
					<dim>32</dim>
				</port>
			</output>
		</layer>
		<layer id="205" name="Conv_175/Dims987916982/EltwiseUnsqueeze17141_const" type="Const" version="opset1">
			<data element_type="f32" offset="2152136" shape="1,16,1,1" size="64"/>
			<output>
				<port id="0" precision="FP32">
					<dim>1</dim>
					<dim>16</dim>
					<dim>1</dim>
					<dim>1</dim>
				</port>
			</output>
		</layer>
		<layer id="206" name="Conv_175" type="Add" version="opset1">
			<data auto_broadcast="numpy"/>
			<input>
				<port id="0">
					<dim>1</dim>
					<dim>16</dim>
					<dim>32</dim>
					<dim>32</dim>
				</port>
				<port id="1">
					<dim>1</dim>
					<dim>16</dim>
					<dim>1</dim>
					<dim>1</dim>
				</port>
			</input>
			<output>
				<port id="2" names="578" precision="FP32">
					<dim>1</dim>
					<dim>16</dim>
					<dim>32</dim>
					<dim>32</dim>
				</port>
			</output>
		</layer>
		<layer id="207" name="Shape_188" type="ShapeOf" version="opset3">
			<data output_type="i64"/>
			<input>
				<port id="0">
					<dim>1</dim>
					<dim>16</dim>
					<dim>32</dim>
					<dim>32</dim>
				</port>
			</input>
			<output>
				<port id="1" names="594" precision="I64">
					<dim>4</dim>
				</port>
			</output>
		</layer>
		<layer id="208" name="Gather_1901219/Cast_138324_const" type="Const" version="opset1">
			<data element_type="i32" offset="2152200" shape="" size="4"/>
			<output>
				<port id="0" names="595" precision="I32"/>
			</output>
		</layer>
		<layer id="209" name="Gather_1901219/Cast_238326_const" type="Const" version="opset1">
			<data element_type="i64" offset="64" shape="" size="8"/>
			<output>
				<port id="0" precision="I64"/>
			</output>
		</layer>
		<layer id="210" name="Gather_1901219" type="Gather" version="opset1">
			<input>
				<port id="0">
					<dim>4</dim>
				</port>
				<port id="1"/>
				<port id="2"/>
			</input>
			<output>
				<port id="3" names="596,606" precision="I64"/>
			</output>
		</layer>
		<layer id="211" name="1397/Output_0/Data__const" type="Const" version="opset1">
			<data element_type="i64" offset="2152204" shape="" size="8"/>
			<output>
				<port id="0" names="1397" precision="I64"/>
			</output>
		</layer>
		<layer id="212" name="Range_198" type="Range" version="opset4">
			<data output_type="i64"/>
			<input>
				<port id="0"/>
				<port id="1"/>
				<port id="2"/>
			</input>
			<output>
				<port id="3" names="608" precision="I64">
					<dim>32</dim>
				</port>
			</output>
		</layer>
		<layer id="213" name="609/EltwiseUnsqueeze17085_const" type="Const" version="opset1">
			<data element_type="i64" offset="2152212" shape="1" size="8"/>
			<output>
				<port id="0" names="609" precision="I64">
					<dim>1</dim>
				</port>
			</output>
		</layer>
		<layer id="214" name="Mul_200" type="Multiply" version="opset1">
			<data auto_broadcast="numpy"/>
			<input>
				<port id="0">
					<dim>32</dim>
				</port>
				<port id="1">
					<dim>1</dim>
				</port>
			</input>
			<output>
				<port id="2" names="610" precision="I64">
					<dim>32</dim>
				</port>
			</output>
		</layer>
		<layer id="215" name="Reshape_208/Cast_138310_const" type="Const" version="opset1">
			<data element_type="i64" offset="2152220" shape="1" size="8"/>
			<output>
				<port id="0" names="621" precision="I64">
					<dim>1</dim>
				</port>
			</output>
		</layer>
		<layer id="216" name="Reshape_208" type="Reshape" version="opset1">
			<data special_zero="true"/>
			<input>
				<port id="0">
					<dim>32</dim>
				</port>
				<port id="1">
					<dim>1</dim>
				</port>
			</input>
			<output>
				<port id="2" names="622" precision="I64">
					<dim>32</dim>
				</port>
			</output>
		</layer>
		<layer id="217" name="630/Output_0/Data__const" type="Const" version="opset1">
			<data element_type="i64" offset="2152204" shape="1" size="8"/>
			<output>
				<port id="0" names="630" precision="I64">
					<dim>1</dim>
				</port>
			</output>
		</layer>
		<layer id="218" name="Shape_210" type="ShapeOf" version="opset3">
			<data output_type="i64"/>
			<input>
				<port id="0">
					<dim>32</dim>
				</port>
			</input>
			<output>
				<port id="1" names="624" precision="I64">
					<dim>1</dim>
				</port>
			</output>
		</layer>
		<layer id="219" name="Concat_217" type="Concat" version="opset1">
			<data axis="0"/>
			<input>
				<port id="0">
					<dim>1</dim>
				</port>
				<port id="1">
					<dim>1</dim>
				</port>
			</input>
			<output>
				<port id="2" names="631" precision="I64">
					<dim>2</dim>
				</port>
			</output>
		</layer>
		<layer id="220" name="Reshape_218" type="Reshape" version="opset1">
			<data special_zero="true"/>
			<input>
				<port id="0">
					<dim>32</dim>
				</port>
				<port id="1">
					<dim>2</dim>
				</port>
			</input>
			<output>
				<port id="2" names="632" precision="I64">
					<dim>1</dim>
					<dim>32</dim>
				</port>
			</output>
		</layer>
		<layer id="221" name="1398/Output_0/Data__const" type="Const" version="opset1">
			<data element_type="i64" offset="64" shape="" size="8"/>
			<output>
				<port id="0" names="1398" precision="I64"/>
			</output>
		</layer>
		<layer id="222" name="Shape_185" type="ShapeOf" version="opset3">
			<data output_type="i64"/>
			<input>
				<port id="0">
					<dim>1</dim>
					<dim>16</dim>
					<dim>32</dim>
					<dim>32</dim>
				</port>
			</input>
			<output>
				<port id="1" names="591" precision="I64">
					<dim>4</dim>
				</port>
			</output>
		</layer>
		<layer id="223" name="Gather_1871165/Cast_138268_const" type="Const" version="opset1">
			<data element_type="i32" offset="2152228" shape="" size="4"/>
			<output>
				<port id="0" names="592" precision="I32"/>
			</output>
		</layer>
		<layer id="224" name="Gather_1871165/Cast_238270_const" type="Const" version="opset1">
			<data element_type="i64" offset="64" shape="" size="8"/>
			<output>
				<port id="0" precision="I64"/>
			</output>
		</layer>
		<layer id="225" name="Gather_1871165" type="Gather" version="opset1">
			<input>
				<port id="0">
					<dim>4</dim>
				</port>
				<port id="1"/>
				<port id="2"/>
			</input>
			<output>
				<port id="3" names="593,614" precision="I64"/>
			</output>
		</layer>
		<layer id="226" name="1399/Output_0/Data__const" type="Const" version="opset1">
			<data element_type="i64" offset="2152204" shape="" size="8"/>
			<output>
				<port id="0" names="1399" precision="I64"/>
			</output>
		</layer>
		<layer id="227" name="Range_202" type="Range" version="opset4">
			<data output_type="i64"/>
			<input>
				<port id="0"/>
				<port id="1"/>
				<port id="2"/>
			</input>
			<output>
				<port id="3" names="616" precision="I64">
					<dim>32</dim>
				</port>
			</output>
		</layer>
		<layer id="228" name="617/EltwiseUnsqueeze17089_const" type="Const" version="opset1">
			<data element_type="i64" offset="2152212" shape="1" size="8"/>
			<output>
				<port id="0" names="617" precision="I64">
					<dim>1</dim>
				</port>
			</output>
		</layer>
		<layer id="229" name="Mul_204" type="Multiply" version="opset1">
			<data auto_broadcast="numpy"/>
			<input>
				<port id="0">
					<dim>32</dim>
				</port>
				<port id="1">
					<dim>1</dim>
				</port>
			</input>
			<output>
				<port id="2" names="618" precision="I64">
					<dim>32</dim>
				</port>
			</output>
		</layer>
		<layer id="230" name="Reshape_206/Cast_138174_const" type="Const" version="opset1">
			<data element_type="i64" offset="2152220" shape="1" size="8"/>
			<output>
				<port id="0" names="619" precision="I64">
					<dim>1</dim>
				</port>
			</output>
		</layer>
		<layer id="231" name="Reshape_206" type="Reshape" version="opset1">
			<data special_zero="true"/>
			<input>
				<port id="0">
					<dim>32</dim>
				</port>
				<port id="1">
					<dim>1</dim>
				</port>
			</input>
			<output>
				<port id="2" names="620" precision="I64">
					<dim>32</dim>
				</port>
			</output>
		</layer>
		<layer id="232" name="Shape_209" type="ShapeOf" version="opset3">
			<data output_type="i64"/>
			<input>
				<port id="0">
					<dim>32</dim>
				</port>
			</input>
			<output>
				<port id="1" names="623" precision="I64">
					<dim>1</dim>
				</port>
			</output>
		</layer>
		<layer id="233" name="Concat_211" type="Concat" version="opset1">
			<data axis="0"/>
			<input>
				<port id="0">
					<dim>1</dim>
				</port>
				<port id="1">
					<dim>1</dim>
				</port>
			</input>
			<output>
				<port id="2" names="625" precision="I64">
					<dim>2</dim>
				</port>
			</output>
		</layer>
		<layer id="234" name="Expand_219" type="Broadcast" version="opset3">
			<data mode="bidirectional"/>
			<input>
				<port id="0">
					<dim>1</dim>
					<dim>32</dim>
				</port>
				<port id="1">
					<dim>2</dim>
				</port>
			</input>
			<output>
				<port id="2" names="633" precision="I64">
					<dim>32</dim>
					<dim>32</dim>
				</port>
			</output>
		</layer>
		<layer id="235" name="Unsqueeze_220/Dims/Output_0/Data__const" type="Const" version="opset1">
			<data element_type="i64" offset="2152232" shape="1" size="8"/>
			<output>
				<port id="0" precision="I64">
					<dim>1</dim>
				</port>
			</output>
		</layer>
		<layer id="236" name="Unsqueeze_220/Unsqueeze" type="Unsqueeze" version="opset1">
			<input>
				<port id="0">
					<dim>32</dim>
					<dim>32</dim>
				</port>
				<port id="1">
					<dim>1</dim>
				</port>
			</input>
			<output>
				<port id="2" names="634" precision="I64">
					<dim>32</dim>
					<dim>32</dim>
					<dim>1</dim>
				</port>
			</output>
		</layer>
		<layer id="237" name="626/Output_0/Data__const" type="Const" version="opset1">
			<data element_type="i64" offset="2152204" shape="1" size="8"/>
			<output>
				<port id="0" names="626" precision="I64">
					<dim>1</dim>
				</port>
			</output>
		</layer>
		<layer id="238" name="Concat_213" type="Concat" version="opset1">
			<data axis="0"/>
			<input>
				<port id="0">
					<dim>1</dim>
				</port>
				<port id="1">
					<dim>1</dim>
				</port>
			</input>
			<output>
				<port id="2" names="627" precision="I64">
					<dim>2</dim>
				</port>
			</output>
		</layer>
		<layer id="239" name="Reshape_214" type="Reshape" version="opset1">
			<data special_zero="true"/>
			<input>
				<port id="0">
					<dim>32</dim>
				</port>
				<port id="1">
					<dim>2</dim>
				</port>
			</input>
			<output>
				<port id="2" names="628" precision="I64">
					<dim>32</dim>
					<dim>1</dim>
				</port>
			</output>
		</layer>
		<layer id="240" name="Expand_215" type="Broadcast" version="opset3">
			<data mode="bidirectional"/>
			<input>
				<port id="0">
					<dim>32</dim>
					<dim>1</dim>
				</port>
				<port id="1">
					<dim>2</dim>
				</port>
			</input>
			<output>
				<port id="2" names="629" precision="I64">
					<dim>32</dim>
					<dim>32</dim>
				</port>
			</output>
		</layer>
		<layer id="241" name="Unsqueeze_221/Dims/Output_0/Data__const" type="Const" version="opset1">
			<data element_type="i64" offset="2152232" shape="1" size="8"/>
			<output>
				<port id="0" precision="I64">
					<dim>1</dim>
				</port>
			</output>
		</layer>
		<layer id="242" name="Unsqueeze_221/Unsqueeze" type="Unsqueeze" version="opset1">
			<input>
				<port id="0">
					<dim>32</dim>
					<dim>32</dim>
				</port>
				<port id="1">
					<dim>1</dim>
				</port>
			</input>
			<output>
				<port id="2" names="635" precision="I64">
					<dim>32</dim>
					<dim>32</dim>
					<dim>1</dim>
				</port>
			</output>
		</layer>
		<layer id="243" name="Unsqueeze_222/Dims/Output_0/Data__const" type="Const" version="opset1">
			<data element_type="i64" offset="2152232" shape="1" size="8"/>
			<output>
				<port id="0" precision="I64">
					<dim>1</dim>
				</port>
			</output>
		</layer>
		<layer id="244" name="Unsqueeze_222/Unsqueeze" type="Unsqueeze" version="opset1">
			<input>
				<port id="0">
					<dim>32</dim>
					<dim>32</dim>
				</port>
				<port id="1">
					<dim>1</dim>
				</port>
			</input>
			<output>
				<port id="2" names="636" precision="I64">
					<dim>32</dim>
					<dim>32</dim>
					<dim>1</dim>
				</port>
			</output>
		</layer>
		<layer id="245" name="Unsqueeze_223/Dims/Output_0/Data__const" type="Const" version="opset1">
			<data element_type="i64" offset="2152232" shape="1" size="8"/>
			<output>
				<port id="0" precision="I64">
					<dim>1</dim>
				</port>
			</output>
		</layer>
		<layer id="246" name="Unsqueeze_223/Unsqueeze" type="Unsqueeze" version="opset1">
			<input>
				<port id="0">
					<dim>32</dim>
					<dim>32</dim>
				</port>
				<port id="1">
					<dim>1</dim>
				</port>
			</input>
			<output>
				<port id="2" names="637" precision="I64">
					<dim>32</dim>
					<dim>32</dim>
					<dim>1</dim>
				</port>
			</output>
		</layer>
		<layer id="247" name="Concat_224" type="Concat" version="opset1">
			<data axis="2"/>
			<input>
				<port id="0">
					<dim>32</dim>
					<dim>32</dim>
					<dim>1</dim>
				</port>
				<port id="1">
					<dim>32</dim>
					<dim>32</dim>
					<dim>1</dim>
				</port>
				<port id="2">
					<dim>32</dim>
					<dim>32</dim>
					<dim>1</dim>
				</port>
				<port id="3">
					<dim>32</dim>
					<dim>32</dim>
					<dim>1</dim>
				</port>
			</input>
			<output>
				<port id="4" names="638" precision="I64">
					<dim>32</dim>
					<dim>32</dim>
					<dim>4</dim>
				</port>
			</output>
		</layer>
		<layer id="248" name="Reshape_226/Cast_138134_const" type="Const" version="opset1">
			<data element_type="i64" offset="2152240" shape="3" size="24"/>
			<output>
				<port id="0" names="639" precision="I64">
					<dim>3</dim>
				</port>
			</output>
		</layer>
		<layer id="249" name="Reshape_226" type="Reshape" version="opset1">
			<data special_zero="true"/>
			<input>
				<port id="0">
					<dim>32</dim>
					<dim>32</dim>
					<dim>4</dim>
				</port>
				<port id="1">
					<dim>3</dim>
				</port>
			</input>
			<output>
				<port id="2" names="640" precision="I64">
					<dim>1024</dim>
					<dim>1</dim>
					<dim>4</dim>
				</port>
			</output>
		</layer>
		<layer id="250" name="Cast_227" type="Convert" version="opset1">
			<data destination_type="f32"/>
			<input>
				<port id="0">
					<dim>1024</dim>
					<dim>1</dim>
					<dim>4</dim>
				</port>
			</input>
			<output>
				<port id="1" names="641" precision="FP32">
					<dim>1024</dim>
					<dim>1</dim>
					<dim>4</dim>
				</port>
			</output>
		</layer>
		<layer id="251" name="Add_229" type="Add" version="opset1">
			<data auto_broadcast="numpy"/>
			<input>
				<port id="0">
					<dim>1</dim>
					<dim>4</dim>
					<dim>4</dim>
				</port>
				<port id="1">
					<dim>1024</dim>
					<dim>1</dim>
					<dim>4</dim>
				</port>
			</input>
			<output>
				<port id="2" names="643" precision="FP32">
					<dim>1024</dim>
					<dim>4</dim>
					<dim>4</dim>
				</port>
			</output>
		</layer>
		<layer id="252" name="Reshape_231/Cast_138078_const" type="Const" version="opset1">
			<data element_type="i64" offset="2152264" shape="2" size="16"/>
			<output>
				<port id="0" names="644" precision="I64">
					<dim>2</dim>
				</port>
			</output>
		</layer>
		<layer id="253" name="Reshape_231" type="Reshape" version="opset1">
			<data special_zero="true"/>
			<input>
				<port id="0">
					<dim>1024</dim>
					<dim>4</dim>
					<dim>4</dim>
				</port>
				<port id="1">
					<dim>2</dim>
				</port>
			</input>
			<output>
				<port id="2" names="645" precision="FP32">
					<dim>4096</dim>
					<dim>4</dim>
				</port>
			</output>
		</layer>
		<layer id="254" name="Gather_3441163/Cast_138248_const" type="Const" version="opset1">
			<data element_type="i32" offset="2152280" shape="" size="4"/>
			<output>
				<port id="0" names="779" precision="I32"/>
			</output>
		</layer>
		<layer id="255" name="Gather_3441163/Cast_238250_const" type="Const" version="opset1">
			<data element_type="i64" offset="2152204" shape="" size="8"/>
			<output>
				<port id="0" precision="I64"/>
			</output>
		</layer>
		<layer id="256" name="Gather_3441163" type="Gather" version="opset1">
			<input>
				<port id="0">
					<dim>4096</dim>
					<dim>4</dim>
				</port>
				<port id="1"/>
				<port id="2"/>
			</input>
			<output>
				<port id="3" names="780" precision="FP32">
					<dim>4096</dim>
				</port>
			</output>
		</layer>
		<layer id="257" name="Gather_3461229/Cast_138090_const" type="Const" version="opset1">
			<data element_type="i32" offset="2152228" shape="" size="4"/>
			<output>
				<port id="0" names="781" precision="I32"/>
			</output>
		</layer>
		<layer id="258" name="Gather_3461229/Cast_238092_const" type="Const" version="opset1">
			<data element_type="i64" offset="2152204" shape="" size="8"/>
			<output>
				<port id="0" precision="I64"/>
			</output>
		</layer>
		<layer id="259" name="Gather_3461229" type="Gather" version="opset1">
			<input>
				<port id="0">
					<dim>4096</dim>
					<dim>4</dim>
				</port>
				<port id="1"/>
				<port id="2"/>
			</input>
			<output>
				<port id="3" names="782" precision="FP32">
					<dim>4096</dim>
				</port>
			</output>
		</layer>
		<layer id="260" name="Add_347" type="Add" version="opset1">
			<data auto_broadcast="numpy"/>
			<input>
				<port id="0">
					<dim>4096</dim>
				</port>
				<port id="1">
					<dim>4096</dim>
				</port>
			</input>
			<output>
				<port id="2" names="783" precision="FP32">
					<dim>4096</dim>
				</port>
			</output>
		</layer>
		<layer id="261" name="784/EltwiseUnsqueeze17101_const" type="Const" version="opset1">
			<data element_type="f32" offset="2152284" shape="1" size="4"/>
			<output>
				<port id="0" names="784" precision="FP32">
					<dim>1</dim>
				</port>
			</output>
		</layer>
		<layer id="262" name="Mul_349" type="Multiply" version="opset1">
			<data auto_broadcast="numpy"/>
			<input>
				<port id="0">
					<dim>4096</dim>
				</port>
				<port id="1">
					<dim>1</dim>
				</port>
			</input>
			<output>
				<port id="2" names="785" precision="FP32">
					<dim>4096</dim>
				</port>
			</output>
		</layer>
		<layer id="263" name="Unsqueeze_350/Dims/Output_0/Data__const" type="Const" version="opset1">
			<data element_type="i64" offset="2152204" shape="1" size="8"/>
			<output>
				<port id="0" precision="I64">
					<dim>1</dim>
				</port>
			</output>
		</layer>
		<layer id="264" name="Unsqueeze_350/Unsqueeze" type="Unsqueeze" version="opset1">
			<input>
				<port id="0">
					<dim>4096</dim>
				</port>
				<port id="1">
					<dim>1</dim>
				</port>
			</input>
			<output>
				<port id="2" names="786" precision="FP32">
					<dim>4096</dim>
					<dim>1</dim>
				</port>
			</output>
		</layer>
		<layer id="265" name="3705937062_const" type="Const" version="opset1">
			<data element_type="f32" offset="2152288" shape="96,1,1,3,3" size="3456"/>
			<output>
				<port id="0" names="1388" precision="FP32">
					<dim>96</dim>
					<dim>1</dim>
					<dim>1</dim>
					<dim>3</dim>
					<dim>3</dim>
				</port>
			</output>
		</layer>
		<layer id="266" name="Conv_176/WithoutBiases" type="GroupConvolution" version="opset1">
			<data auto_pad="explicit" dilations="1,1" pads_begin="1,1" pads_end="1,1" strides="1,1"/>
			<input>
				<port id="0">
					<dim>1</dim>
					<dim>96</dim>
					<dim>32</dim>
					<dim>32</dim>
				</port>
				<port id="1">
					<dim>96</dim>
					<dim>1</dim>
					<dim>1</dim>
					<dim>3</dim>
					<dim>3</dim>
				</port>
			</input>
			<output>
				<port id="2" precision="FP32">
					<dim>1</dim>
					<dim>96</dim>
					<dim>32</dim>
					<dim>32</dim>
				</port>
			</output>
		</layer>
		<layer id="267" name="Conv_176/Dims1001117004/EltwiseUnsqueeze17229_const" type="Const" version="opset1">
			<data element_type="f32" offset="2155744" shape="1,96,1,1" size="384"/>
			<output>
				<port id="0" precision="FP32">
					<dim>1</dim>
					<dim>96</dim>
					<dim>1</dim>
					<dim>1</dim>
				</port>
			</output>
		</layer>
		<layer id="268" name="Conv_176" type="Add" version="opset1">
			<data auto_broadcast="numpy"/>
			<input>
				<port id="0">
					<dim>1</dim>
					<dim>96</dim>
					<dim>32</dim>
					<dim>32</dim>
				</port>
				<port id="1">
					<dim>1</dim>
					<dim>96</dim>
					<dim>1</dim>
					<dim>1</dim>
				</port>
			</input>
			<output>
				<port id="2" names="1387" precision="FP32">
					<dim>1</dim>
					<dim>96</dim>
					<dim>32</dim>
					<dim>32</dim>
				</port>
			</output>
		</layer>
		<layer id="269" name="Relu_177" type="ReLU" version="opset1">
			<input>
				<port id="0">
					<dim>1</dim>
					<dim>96</dim>
					<dim>32</dim>
					<dim>32</dim>
				</port>
			</input>
			<output>
				<port id="1" names="581" precision="FP32">
					<dim>1</dim>
					<dim>96</dim>
					<dim>32</dim>
					<dim>32</dim>
				</port>
			</output>
		</layer>
		<layer id="270" name="bbox_head.reg_convs.0.3.weight/Output_0/Data__const" type="Const" version="opset1">
			<data element_type="f32" offset="2156128" shape="16,96,1,1" size="6144"/>
			<output>
				<port id="0" names="bbox_head.reg_convs.0.3.weight" precision="FP32">
					<dim>16</dim>
					<dim>96</dim>
					<dim>1</dim>
					<dim>1</dim>
				</port>
			</output>
		</layer>
		<layer id="271" name="Conv_178/WithoutBiases" type="Convolution" version="opset1">
			<data auto_pad="explicit" dilations="1,1" pads_begin="0,0" pads_end="0,0" strides="1,1"/>
			<input>
				<port id="0">
					<dim>1</dim>
					<dim>96</dim>
					<dim>32</dim>
					<dim>32</dim>
				</port>
				<port id="1">
					<dim>16</dim>
					<dim>96</dim>
					<dim>1</dim>
					<dim>1</dim>
				</port>
			</input>
			<output>
				<port id="2" precision="FP32">
					<dim>1</dim>
					<dim>16</dim>
					<dim>32</dim>
					<dim>32</dim>
				</port>
			</output>
		</layer>
		<layer id="272" name="Conv_178/Dims1014317026/EltwiseUnsqueeze17317_const" type="Const" version="opset1">
			<data element_type="f32" offset="2162272" shape="1,16,1,1" size="64"/>
			<output>
				<port id="0" precision="FP32">
					<dim>1</dim>
					<dim>16</dim>
					<dim>1</dim>
					<dim>1</dim>
				</port>
			</output>
		</layer>
		<layer id="273" name="Conv_178" type="Add" version="opset1">
			<data auto_broadcast="numpy"/>
			<input>
				<port id="0">
					<dim>1</dim>
					<dim>16</dim>
					<dim>32</dim>
					<dim>32</dim>
				</port>
				<port id="1">
					<dim>1</dim>
					<dim>16</dim>
					<dim>1</dim>
					<dim>1</dim>
				</port>
			</input>
			<output>
				<port id="2" names="582" precision="FP32">
					<dim>1</dim>
					<dim>16</dim>
					<dim>32</dim>
					<dim>32</dim>
				</port>
			</output>
		</layer>
		<layer id="274" name="Gather_2721189/Cast_138038_const" type="Const" version="opset1">
			<data element_type="i32" offset="2152280" shape="" size="4"/>
			<output>
				<port id="0" names="693" precision="I32"/>
			</output>
		</layer>
		<layer id="275" name="Gather_2721189/Cast_238040_const" type="Const" version="opset1">
			<data element_type="i64" offset="64" shape="" size="8"/>
			<output>
				<port id="0" precision="I64"/>
			</output>
		</layer>
		<layer id="276" name="Gather_2721189" type="Gather" version="opset1">
			<input>
				<port id="0">
					<dim>1</dim>
					<dim>16</dim>
					<dim>32</dim>
					<dim>32</dim>
				</port>
				<port id="1"/>
				<port id="2"/>
			</input>
			<output>
				<port id="3" names="694" precision="FP32">
					<dim>16</dim>
					<dim>32</dim>
					<dim>32</dim>
				</port>
			</output>
		</layer>
		<layer id="277" name="Transpose_284/Cast_138440_const" type="Const" version="opset1">
			<data element_type="i64" offset="2162336" shape="3" size="24"/>
			<output>
				<port id="0" precision="I64">
					<dim>3</dim>
				</port>
			</output>
		</layer>
		<layer id="278" name="Transpose_284" type="Transpose" version="opset1">
			<input>
				<port id="0">
					<dim>16</dim>
					<dim>32</dim>
					<dim>32</dim>
				</port>
				<port id="1">
					<dim>3</dim>
				</port>
			</input>
			<output>
				<port id="2" names="706" precision="FP32">
					<dim>32</dim>
					<dim>32</dim>
					<dim>16</dim>
				</port>
			</output>
		</layer>
		<layer id="279" name="Reshape_286/Cast_138208_const" type="Const" version="opset1">
			<data element_type="i64" offset="2152264" shape="2" size="16"/>
			<output>
				<port id="0" names="707" precision="I64">
					<dim>2</dim>
				</port>
			</output>
		</layer>
		<layer id="280" name="Reshape_286" type="Reshape" version="opset1">
			<data special_zero="true"/>
			<input>
				<port id="0">
					<dim>32</dim>
					<dim>32</dim>
					<dim>16</dim>
				</port>
				<port id="1">
					<dim>2</dim>
				</port>
			</input>
			<output>
				<port id="2" names="708" precision="FP32">
					<dim>4096</dim>
					<dim>4</dim>
				</port>
			</output>
		</layer>
		<layer id="281" name="728/Output_0/Data__const" type="Const" version="opset1">
			<data element_type="f32" offset="2162360" shape="1,4" size="16"/>
			<output>
				<port id="0" names="728" precision="FP32">
					<dim>1</dim>
					<dim>4</dim>
				</port>
			</output>
		</layer>
		<layer id="282" name="ConstantOfShape_316/Broadcast/FillValue/Output_0/Data__const" type="Const" version="opset1">
			<data element_type="i64" offset="2152204" shape="1" size="8"/>
			<output>
				<port id="0" precision="I64">
					<dim>1</dim>
				</port>
			</output>
		</layer>
		<layer id="283" name="1406/Output_0/Data__const" type="Const" version="opset1">
			<data element_type="i64" offset="2152204" shape="1" size="8"/>
			<output>
				<port id="0" names="1406" precision="I64">
					<dim>1</dim>
				</port>
			</output>
		</layer>
		<layer id="284" name="Shape_304" type="ShapeOf" version="opset3">
			<data output_type="i64"/>
			<input>
				<port id="0">
					<dim>4096</dim>
					<dim>4</dim>
				</port>
			</input>
			<output>
				<port id="1" names="729" precision="I64">
					<dim>2</dim>
				</port>
			</output>
		</layer>
		<layer id="285" name="Gather_3061171/Cast_138022_const" type="Const" version="opset1">
			<data element_type="i32" offset="2162376" shape="" size="4"/>
			<output>
				<port id="0" names="730" precision="I32"/>
			</output>
		</layer>
		<layer id="286" name="Gather_3061171/Cast_238024_const" type="Const" version="opset1">
			<data element_type="i64" offset="64" shape="" size="8"/>
			<output>
				<port id="0" precision="I64"/>
			</output>
		</layer>
		<layer id="287" name="Gather_3061171" type="Gather" version="opset1">
			<input>
				<port id="0">
					<dim>2</dim>
				</port>
				<port id="1"/>
				<port id="2"/>
			</input>
			<output>
				<port id="3" names="731" precision="I64"/>
			</output>
		</layer>
		<layer id="288" name="732/Output_0/Data__const" type="Const" version="opset1">
			<data element_type="i64" offset="2162380" shape="" size="8"/>
			<output>
				<port id="0" names="732" precision="I64"/>
			</output>
		</layer>
		<layer id="289" name="Div_308" type="Divide" version="opset1">
			<data auto_broadcast="numpy"/>
			<input>
				<port id="0"/>
				<port id="1"/>
			</input>
			<output>
				<port id="2" names="733,734,735" precision="I64"/>
			</output>
		</layer>
		<layer id="290" name="Unsqueeze_311/Dims/Output_0/Data__const" type="Const" version="opset1">
			<data element_type="i64" offset="64" shape="1" size="8"/>
			<output>
				<port id="0" precision="I64">
					<dim>1</dim>
				</port>
			</output>
		</layer>
		<layer id="291" name="Unsqueeze_311/Unsqueeze" type="Unsqueeze" version="opset1">
			<input>
				<port id="0"/>
				<port id="1">
					<dim>1</dim>
				</port>
			</input>
			<output>
				<port id="2" names="738" precision="I64">
					<dim>1</dim>
				</port>
			</output>
		</layer>
		<layer id="292" name="Concat_312" type="Concat" version="opset1">
			<data axis="0"/>
			<input>
				<port id="0">
					<dim>1</dim>
				</port>
				<port id="1">
					<dim>1</dim>
				</port>
			</input>
			<output>
				<port id="2" names="739" precision="I64">
					<dim>2</dim>
				</port>
			</output>
		</layer>
		<layer id="293" name="Shape_315" type="ShapeOf" version="opset3">
			<data output_type="i64"/>
			<input>
				<port id="0">
					<dim>2</dim>
				</port>
			</input>
			<output>
				<port id="1" names="743" precision="I64">
					<dim>1</dim>
				</port>
			</output>
		</layer>
		<layer id="294" name="ConstantOfShape_316/Broadcast" type="Broadcast" version="opset3">
			<data mode="numpy"/>
			<input>
				<port id="0">
					<dim>1</dim>
				</port>
				<port id="1">
					<dim>1</dim>
				</port>
			</input>
			<output>
				<port id="2" names="744" precision="I64">
					<dim>2</dim>
				</port>
			</output>
		</layer>
		<layer id="295" name="Expand_317" type="Broadcast" version="opset3">
			<data mode="bidirectional"/>
			<input>
				<port id="0">
					<dim>1</dim>
					<dim>4</dim>
				</port>
				<port id="1">
					<dim>2</dim>
				</port>
			</input>
			<output>
				<port id="2" names="745" precision="FP32">
					<dim>1</dim>
					<dim>4</dim>
				</port>
			</output>
		</layer>
		<layer id="296" name="1407/Output_0/Data__const" type="Const" version="opset1">
			<data element_type="i64" offset="2152204" shape="1" size="8"/>
			<output>
				<port id="0" names="1407" precision="I64">
					<dim>1</dim>
				</port>
			</output>
		</layer>
		<layer id="297" name="Unsqueeze_313/Dims/Output_0/Data__const" type="Const" version="opset1">
			<data element_type="i64" offset="64" shape="1" size="8"/>
			<output>
				<port id="0" precision="I64">
					<dim>1</dim>
				</port>
			</output>
		</layer>
		<layer id="298" name="Unsqueeze_313/Unsqueeze" type="Unsqueeze" version="opset1">
			<input>
				<port id="0"/>
				<port id="1">
					<dim>1</dim>
				</port>
			</input>
			<output>
				<port id="2" names="741" precision="I64">
					<dim>1</dim>
				</port>
			</output>
		</layer>
		<layer id="299" name="Concat_314" type="Concat" version="opset1">
			<data axis="0"/>
			<input>
				<port id="0">
					<dim>1</dim>
				</port>
				<port id="1">
					<dim>1</dim>
				</port>
			</input>
			<output>
				<port id="2" names="742" precision="I64">
					<dim>2</dim>
				</port>
			</output>
		</layer>
		<layer id="300" name="Tile_318" type="Tile" version="opset1">
			<input>
				<port id="0">
					<dim>1</dim>
					<dim>4</dim>
				</port>
				<port id="1">
					<dim>2</dim>
				</port>
			</input>
			<output>
				<port id="2" names="746" precision="FP32">
					<dim>1</dim>
					<dim>4</dim>
				</port>
			</output>
		</layer>
		<layer id="301" name="Mul_319" type="Multiply" version="opset1">
			<data auto_broadcast="numpy"/>
			<input>
				<port id="0">
					<dim>4096</dim>
					<dim>4</dim>
				</port>
				<port id="1">
					<dim>1</dim>
					<dim>4</dim>
				</port>
			</input>
			<output>
				<port id="2" names="747" precision="FP32">
					<dim>4096</dim>
					<dim>4</dim>
				</port>
			</output>
		</layer>
		<layer id="302" name="709/Output_0/Data__const" type="Const" version="opset1">
			<data element_type="f32" offset="2162388" shape="1,4" size="16"/>
			<output>
				<port id="0" names="709" precision="FP32">
					<dim>1</dim>
					<dim>4</dim>
				</port>
			</output>
		</layer>
		<layer id="303" name="ConstantOfShape_300/Broadcast/FillValue/Output_0/Data__const" type="Const" version="opset1">
			<data element_type="i64" offset="2152204" shape="1" size="8"/>
			<output>
				<port id="0" precision="I64">
					<dim>1</dim>
				</port>
			</output>
		</layer>
		<layer id="304" name="1404/Output_0/Data__const" type="Const" version="opset1">
			<data element_type="i64" offset="2152204" shape="1" size="8"/>
			<output>
				<port id="0" names="1404" precision="I64">
					<dim>1</dim>
				</port>
			</output>
		</layer>
		<layer id="305" name="Shape_288" type="ShapeOf" version="opset3">
			<data output_type="i64"/>
			<input>
				<port id="0">
					<dim>4096</dim>
					<dim>4</dim>
				</port>
			</input>
			<output>
				<port id="1" names="710" precision="I64">
					<dim>2</dim>
				</port>
			</output>
		</layer>
		<layer id="306" name="Gather_2901187/Cast_138294_const" type="Const" version="opset1">
			<data element_type="i32" offset="2162376" shape="" size="4"/>
			<output>
				<port id="0" names="711" precision="I32"/>
			</output>
		</layer>
		<layer id="307" name="Gather_2901187/Cast_238296_const" type="Const" version="opset1">
			<data element_type="i64" offset="64" shape="" size="8"/>
			<output>
				<port id="0" precision="I64"/>
			</output>
		</layer>
		<layer id="308" name="Gather_2901187" type="Gather" version="opset1">
			<input>
				<port id="0">
					<dim>2</dim>
				</port>
				<port id="1"/>
				<port id="2"/>
			</input>
			<output>
				<port id="3" names="712" precision="I64"/>
			</output>
		</layer>
		<layer id="309" name="713/Output_0/Data__const" type="Const" version="opset1">
			<data element_type="i64" offset="2162380" shape="" size="8"/>
			<output>
				<port id="0" names="713" precision="I64"/>
			</output>
		</layer>
		<layer id="310" name="Div_292" type="Divide" version="opset1">
			<data auto_broadcast="numpy"/>
			<input>
				<port id="0"/>
				<port id="1"/>
			</input>
			<output>
				<port id="2" names="714,715,716" precision="I64"/>
			</output>
		</layer>
		<layer id="311" name="Unsqueeze_295/Dims/Output_0/Data__const" type="Const" version="opset1">
			<data element_type="i64" offset="64" shape="1" size="8"/>
			<output>
				<port id="0" precision="I64">
					<dim>1</dim>
				</port>
			</output>
		</layer>
		<layer id="312" name="Unsqueeze_295/Unsqueeze" type="Unsqueeze" version="opset1">
			<input>
				<port id="0"/>
				<port id="1">
					<dim>1</dim>
				</port>
			</input>
			<output>
				<port id="2" names="719" precision="I64">
					<dim>1</dim>
				</port>
			</output>
		</layer>
		<layer id="313" name="Concat_296" type="Concat" version="opset1">
			<data axis="0"/>
			<input>
				<port id="0">
					<dim>1</dim>
				</port>
				<port id="1">
					<dim>1</dim>
				</port>
			</input>
			<output>
				<port id="2" names="720" precision="I64">
					<dim>2</dim>
				</port>
			</output>
		</layer>
		<layer id="314" name="Shape_299" type="ShapeOf" version="opset3">
			<data output_type="i64"/>
			<input>
				<port id="0">
					<dim>2</dim>
				</port>
			</input>
			<output>
				<port id="1" names="724" precision="I64">
					<dim>1</dim>
				</port>
			</output>
		</layer>
		<layer id="315" name="ConstantOfShape_300/Broadcast" type="Broadcast" version="opset3">
			<data mode="numpy"/>
			<input>
				<port id="0">
					<dim>1</dim>
				</port>
				<port id="1">
					<dim>1</dim>
				</port>
			</input>
			<output>
				<port id="2" names="725" precision="I64">
					<dim>2</dim>
				</port>
			</output>
		</layer>
		<layer id="316" name="Expand_301" type="Broadcast" version="opset3">
			<data mode="bidirectional"/>
			<input>
				<port id="0">
					<dim>1</dim>
					<dim>4</dim>
				</port>
				<port id="1">
					<dim>2</dim>
				</port>
			</input>
			<output>
				<port id="2" names="726" precision="FP32">
					<dim>1</dim>
					<dim>4</dim>
				</port>
			</output>
		</layer>
		<layer id="317" name="1405/Output_0/Data__const" type="Const" version="opset1">
			<data element_type="i64" offset="2152204" shape="1" size="8"/>
			<output>
				<port id="0" names="1405" precision="I64">
					<dim>1</dim>
				</port>
			</output>
		</layer>
		<layer id="318" name="Unsqueeze_297/Dims/Output_0/Data__const" type="Const" version="opset1">
			<data element_type="i64" offset="64" shape="1" size="8"/>
			<output>
				<port id="0" precision="I64">
					<dim>1</dim>
				</port>
			</output>
		</layer>
		<layer id="319" name="Unsqueeze_297/Unsqueeze" type="Unsqueeze" version="opset1">
			<input>
				<port id="0"/>
				<port id="1">
					<dim>1</dim>
				</port>
			</input>
			<output>
				<port id="2" names="722" precision="I64">
					<dim>1</dim>
				</port>
			</output>
		</layer>
		<layer id="320" name="Concat_298" type="Concat" version="opset1">
			<data axis="0"/>
			<input>
				<port id="0">
					<dim>1</dim>
				</port>
				<port id="1">
					<dim>1</dim>
				</port>
			</input>
			<output>
				<port id="2" names="723" precision="I64">
					<dim>2</dim>
				</port>
			</output>
		</layer>
		<layer id="321" name="Tile_302" type="Tile" version="opset1">
			<input>
				<port id="0">
					<dim>1</dim>
					<dim>4</dim>
				</port>
				<port id="1">
					<dim>2</dim>
				</port>
			</input>
			<output>
				<port id="2" names="727" precision="FP32">
					<dim>1</dim>
					<dim>4</dim>
				</port>
			</output>
		</layer>
		<layer id="322" name="Add_320" type="Add" version="opset1">
			<data auto_broadcast="numpy"/>
			<input>
				<port id="0">
					<dim>4096</dim>
					<dim>4</dim>
				</port>
				<port id="1">
					<dim>1</dim>
					<dim>4</dim>
				</port>
			</input>
			<output>
				<port id="2" names="748" precision="FP32">
					<dim>4096</dim>
					<dim>4</dim>
				</port>
			</output>
		</layer>
		<layer id="323" name="Slice_325/Cast_138062_const" type="Const" version="opset1">
			<data element_type="i64" offset="2162404" shape="2" size="16"/>
			<output>
				<port id="0" precision="I64">
					<dim>2</dim>
				</port>
			</output>
		</layer>
		<layer id="324" name="Slice_325/Cast_238064_const" type="Const" version="opset1">
			<data element_type="i64" offset="2162420" shape="2" size="16"/>
			<output>
				<port id="0" precision="I64">
					<dim>2</dim>
				</port>
			</output>
		</layer>
		<layer id="325" name="Slice_325/Cast_338066_const" type="Const" version="opset1">
			<data element_type="i64" offset="2162436" shape="2" size="16"/>
			<output>
				<port id="0" precision="I64">
					<dim>2</dim>
				</port>
			</output>
		</layer>
		<layer id="326" name="Slice_325" type="StridedSlice" version="opset1">
			<data begin_mask="1,0" ellipsis_mask="0,0" end_mask="1,0" new_axis_mask="0,0" shrink_axis_mask="0,0"/>
			<input>
				<port id="0">
					<dim>4096</dim>
					<dim>4</dim>
				</port>
				<port id="1">
					<dim>2</dim>
				</port>
				<port id="2">
					<dim>2</dim>
				</port>
				<port id="3">
					<dim>2</dim>
				</port>
			</input>
			<output>
				<port id="4" names="753" precision="FP32">
					<dim>4096</dim>
					<dim>1</dim>
				</port>
			</output>
		</layer>
		<layer id="327" name="Shape_351" type="ShapeOf" version="opset3">
			<data output_type="i64"/>
			<input>
				<port id="0">
					<dim>4096</dim>
					<dim>1</dim>
				</port>
			</input>
			<output>
				<port id="1" names="787" precision="I64">
					<dim>2</dim>
				</port>
			</output>
		</layer>
		<layer id="328" name="Expand_352" type="Broadcast" version="opset3">
			<data mode="bidirectional"/>
			<input>
				<port id="0">
					<dim>4096</dim>
					<dim>1</dim>
				</port>
				<port id="1">
					<dim>2</dim>
				</port>
			</input>
			<output>
				<port id="2" names="788" precision="FP32">
					<dim>4096</dim>
					<dim>1</dim>
				</port>
			</output>
		</layer>
		<layer id="329" name="Gather_3641175/Cast_138382_const" type="Const" version="opset1">
			<data element_type="i32" offset="2152228" shape="" size="4"/>
			<output>
				<port id="0" names="799" precision="I32"/>
			</output>
		</layer>
		<layer id="330" name="Gather_3641175/Cast_238384_const" type="Const" version="opset1">
			<data element_type="i64" offset="2152204" shape="" size="8"/>
			<output>
				<port id="0" precision="I64"/>
			</output>
		</layer>
		<layer id="331" name="Gather_3641175" type="Gather" version="opset1">
			<input>
				<port id="0">
					<dim>4096</dim>
					<dim>4</dim>
				</port>
				<port id="1"/>
				<port id="2"/>
			</input>
			<output>
				<port id="3" names="800" precision="FP32">
					<dim>4096</dim>
				</port>
			</output>
		</layer>
		<layer id="332" name="Gather_3661183/Cast_138340_const" type="Const" version="opset1">
			<data element_type="i32" offset="2152280" shape="" size="4"/>
			<output>
				<port id="0" names="801" precision="I32"/>
			</output>
		</layer>
		<layer id="333" name="Gather_3661183/Cast_238342_const" type="Const" version="opset1">
			<data element_type="i64" offset="2152204" shape="" size="8"/>
			<output>
				<port id="0" precision="I64"/>
			</output>
		</layer>
		<layer id="334" name="Gather_3661183" type="Gather" version="opset1">
			<input>
				<port id="0">
					<dim>4096</dim>
					<dim>4</dim>
				</port>
				<port id="1"/>
				<port id="2"/>
			</input>
			<output>
				<port id="3" names="802" precision="FP32">
					<dim>4096</dim>
				</port>
			</output>
		</layer>
		<layer id="335" name="Sub_367" type="Subtract" version="opset1">
			<data auto_broadcast="numpy"/>
			<input>
				<port id="0">
					<dim>4096</dim>
				</port>
				<port id="1">
					<dim>4096</dim>
				</port>
			</input>
			<output>
				<port id="2" names="803" precision="FP32">
					<dim>4096</dim>
				</port>
			</output>
		</layer>
		<layer id="336" name="Unsqueeze_368/Dims/Output_0/Data__const" type="Const" version="opset1">
			<data element_type="i64" offset="2152204" shape="1" size="8"/>
			<output>
				<port id="0" precision="I64">
					<dim>1</dim>
				</port>
			</output>
		</layer>
		<layer id="337" name="Unsqueeze_368/Unsqueeze" type="Unsqueeze" version="opset1">
			<input>
				<port id="0">
					<dim>4096</dim>
				</port>
				<port id="1">
					<dim>1</dim>
				</port>
			</input>
			<output>
				<port id="2" names="804" precision="FP32">
					<dim>4096</dim>
					<dim>1</dim>
				</port>
			</output>
		</layer>
		<layer id="338" name="Slice_335/Cast_138082_const" type="Const" version="opset1">
			<data element_type="i64" offset="2162452" shape="2" size="16"/>
			<output>
				<port id="0" precision="I64">
					<dim>2</dim>
				</port>
			</output>
		</layer>
		<layer id="339" name="Slice_335/Cast_238084_const" type="Const" version="opset1">
			<data element_type="i64" offset="2162420" shape="2" size="16"/>
			<output>
				<port id="0" precision="I64">
					<dim>2</dim>
				</port>
			</output>
		</layer>
		<layer id="340" name="Slice_335/Cast_338086_const" type="Const" version="opset1">
			<data element_type="i64" offset="2162436" shape="2" size="16"/>
			<output>
				<port id="0" precision="I64">
					<dim>2</dim>
				</port>
			</output>
		</layer>
		<layer id="341" name="Slice_335" type="StridedSlice" version="opset1">
			<data begin_mask="1,0" ellipsis_mask="0,0" end_mask="1,0" new_axis_mask="0,0" shrink_axis_mask="0,0"/>
			<input>
				<port id="0">
					<dim>4096</dim>
					<dim>4</dim>
				</port>
				<port id="1">
					<dim>2</dim>
				</port>
				<port id="2">
					<dim>2</dim>
				</port>
				<port id="3">
					<dim>2</dim>
				</port>
			</input>
			<output>
				<port id="4" names="763" precision="FP32">
					<dim>4096</dim>
					<dim>1</dim>
				</port>
			</output>
		</layer>
		<layer id="342" name="Clip_341" type="Clamp" version="opset1">
			<data max="4.1351666" min="-4.1351666"/>
			<input>
				<port id="0">
					<dim>4096</dim>
					<dim>1</dim>
				</port>
			</input>
			<output>
				<port id="1" names="773" precision="FP32">
					<dim>4096</dim>
					<dim>1</dim>
				</port>
			</output>
		</layer>
		<layer id="343" name="Shape_369" type="ShapeOf" version="opset3">
			<data output_type="i64"/>
			<input>
				<port id="0">
					<dim>4096</dim>
					<dim>1</dim>
				</port>
			</input>
			<output>
				<port id="1" names="805" precision="I64">
					<dim>2</dim>
				</port>
			</output>
		</layer>
		<layer id="344" name="Expand_370" type="Broadcast" version="opset3">
			<data mode="bidirectional"/>
			<input>
				<port id="0">
					<dim>4096</dim>
					<dim>1</dim>
				</port>
				<port id="1">
					<dim>2</dim>
				</port>
			</input>
			<output>
				<port id="2" names="806" precision="FP32">
					<dim>4096</dim>
					<dim>1</dim>
				</port>
			</output>
		</layer>
		<layer id="345" name="Mul_383" type="Multiply" version="opset1">
			<data auto_broadcast="numpy"/>
			<input>
				<port id="0">
					<dim>4096</dim>
					<dim>1</dim>
				</port>
				<port id="1">
					<dim>4096</dim>
					<dim>1</dim>
				</port>
			</input>
			<output>
				<port id="2" names="819" precision="FP32">
					<dim>4096</dim>
					<dim>1</dim>
				</port>
			</output>
		</layer>
		<layer id="346" name="Add_384" type="Add" version="opset1">
			<data auto_broadcast="numpy"/>
			<input>
				<port id="0">
					<dim>4096</dim>
					<dim>1</dim>
				</port>
				<port id="1">
					<dim>4096</dim>
					<dim>1</dim>
				</port>
			</input>
			<output>
				<port id="2" names="820" precision="FP32">
					<dim>4096</dim>
					<dim>1</dim>
				</port>
			</output>
		</layer>
		<layer id="347" name="Exp_379" type="Exp" version="opset1">
			<input>
				<port id="0">
					<dim>4096</dim>
					<dim>1</dim>
				</port>
			</input>
			<output>
				<port id="1" names="815" precision="FP32">
					<dim>4096</dim>
					<dim>1</dim>
				</port>
			</output>
		</layer>
		<layer id="348" name="Mul_380" type="Multiply" version="opset1">
			<data auto_broadcast="numpy"/>
			<input>
				<port id="0">
					<dim>4096</dim>
					<dim>1</dim>
				</port>
				<port id="1">
					<dim>4096</dim>
					<dim>1</dim>
				</port>
			</input>
			<output>
				<port id="2" names="816" precision="FP32">
					<dim>4096</dim>
					<dim>1</dim>
				</port>
			</output>
		</layer>
		<layer id="349" name="data_mul_165441654617079/EltwiseUnsqueeze17385_const" type="Const" version="opset1">
			<data element_type="f32" offset="2162468" shape="1,1" size="4"/>
			<output>
				<port id="0" precision="FP32">
					<dim>1</dim>
					<dim>1</dim>
				</port>
			</output>
		</layer>
		<layer id="350" name="Mul_388/Fused_Mul_" type="Multiply" version="opset1">
			<data auto_broadcast="numpy"/>
			<input>
				<port id="0">
					<dim>4096</dim>
					<dim>1</dim>
				</port>
				<port id="1">
					<dim>1</dim>
					<dim>1</dim>
				</port>
			</input>
			<output>
				<port id="2" names="824" precision="FP32">
					<dim>4096</dim>
					<dim>1</dim>
				</port>
			</output>
		</layer>
		<layer id="351" name="Sub_389" type="Add" version="opset1">
			<data auto_broadcast="numpy"/>
			<input>
				<port id="0">
					<dim>4096</dim>
					<dim>1</dim>
				</port>
				<port id="1">
					<dim>4096</dim>
					<dim>1</dim>
				</port>
			</input>
			<output>
				<port id="2" names="825" precision="FP32">
					<dim>4096</dim>
					<dim>1</dim>
				</port>
			</output>
		</layer>
		<layer id="352" name="Unsqueeze_404/Dims/Output_0/Data__const" type="Const" version="opset1">
			<data element_type="i64" offset="2152232" shape="1" size="8"/>
			<output>
				<port id="0" precision="I64">
					<dim>1</dim>
				</port>
			</output>
		</layer>
		<layer id="353" name="Unsqueeze_404/Unsqueeze" type="Unsqueeze" version="opset1">
			<input>
				<port id="0">
					<dim>4096</dim>
					<dim>1</dim>
				</port>
				<port id="1">
					<dim>1</dim>
				</port>
			</input>
			<output>
				<port id="2" names="840" precision="FP32">
					<dim>4096</dim>
					<dim>1</dim>
					<dim>1</dim>
				</port>
			</output>
		</layer>
		<layer id="354" name="837/Output_0/Data__const" type="Const" version="opset1">
			<data element_type="f32" offset="2162472" shape="1,1" size="4"/>
			<output>
				<port id="0" names="837" precision="FP32">
					<dim>1</dim>
					<dim>1</dim>
				</port>
			</output>
		</layer>
		<layer id="355" name="Shape_402" type="ShapeOf" version="opset3">
			<data output_type="i64"/>
			<input>
				<port id="0">
					<dim>4096</dim>
					<dim>1</dim>
				</port>
			</input>
			<output>
				<port id="1" names="838" precision="I64">
					<dim>2</dim>
				</port>
			</output>
		</layer>
		<layer id="356" name="Expand_403" type="Broadcast" version="opset3">
			<data mode="bidirectional"/>
			<input>
				<port id="0">
					<dim>1</dim>
					<dim>1</dim>
				</port>
				<port id="1">
					<dim>2</dim>
				</port>
			</input>
			<output>
				<port id="2" names="839" precision="FP32">
					<dim>4096</dim>
					<dim>1</dim>
				</port>
			</output>
		</layer>
		<layer id="357" name="Unsqueeze_405/Dims/Output_0/Data__const" type="Const" version="opset1">
			<data element_type="i64" offset="2152232" shape="1" size="8"/>
			<output>
				<port id="0" precision="I64">
					<dim>1</dim>
				</port>
			</output>
		</layer>
		<layer id="358" name="Unsqueeze_405/Unsqueeze" type="Unsqueeze" version="opset1">
			<input>
				<port id="0">
					<dim>4096</dim>
					<dim>1</dim>
				</port>
				<port id="1">
					<dim>1</dim>
				</port>
			</input>
			<output>
				<port id="2" names="841" precision="FP32">
					<dim>4096</dim>
					<dim>1</dim>
					<dim>1</dim>
				</port>
			</output>
		</layer>
		<layer id="359" name="Concat_406" type="Concat" version="opset1">
			<data axis="2"/>
			<input>
				<port id="0">
					<dim>4096</dim>
					<dim>1</dim>
					<dim>1</dim>
				</port>
				<port id="1">
					<dim>4096</dim>
					<dim>1</dim>
					<dim>1</dim>
				</port>
			</input>
			<output>
				<port id="2" names="842" precision="FP32">
					<dim>4096</dim>
					<dim>1</dim>
					<dim>2</dim>
				</port>
			</output>
		</layer>
		<layer id="360" name="ReduceMax_407/Cast_138130_const" type="Const" version="opset1">
			<data element_type="i64" offset="2152232" shape="1" size="8"/>
			<output>
				<port id="0" precision="I64">
					<dim>1</dim>
				</port>
			</output>
		</layer>
		<layer id="361" name="ReduceMax_407" type="ReduceMax" version="opset1">
			<data keep_dims="false"/>
			<input>
				<port id="0">
					<dim>4096</dim>
					<dim>1</dim>
					<dim>2</dim>
				</port>
				<port id="1">
					<dim>1</dim>
				</port>
			</input>
			<output>
				<port id="2" names="843" precision="FP32">
					<dim>4096</dim>
					<dim>1</dim>
				</port>
			</output>
		</layer>
		<layer id="362" name="Unsqueeze_413/Dims/Output_0/Data__const" type="Const" version="opset1">
			<data element_type="i64" offset="2152232" shape="1" size="8"/>
			<output>
				<port id="0" precision="I64">
					<dim>1</dim>
				</port>
			</output>
		</layer>
		<layer id="363" name="Unsqueeze_413/Unsqueeze" type="Unsqueeze" version="opset1">
			<input>
				<port id="0">
					<dim>4096</dim>
					<dim>1</dim>
				</port>
				<port id="1">
					<dim>1</dim>
				</port>
			</input>
			<output>
				<port id="2" names="849" precision="FP32">
					<dim>4096</dim>
					<dim>1</dim>
					<dim>1</dim>
				</port>
			</output>
		</layer>
		<layer id="364" name="Shape_0" type="ShapeOf" version="opset3">
			<data output_type="i64"/>
			<input>
				<port id="0">
					<dim>1</dim>
					<dim>3</dim>
					<dim>512</dim>
					<dim>512</dim>
				</port>
			</input>
			<output>
				<port id="1" names="350" precision="I64">
					<dim>4</dim>
				</port>
			</output>
		</layer>
		<layer id="365" name="Slice_5/Cast_138262_const" type="Const" version="opset1">
			<data element_type="i64" offset="2152232" shape="1" size="8"/>
			<output>
				<port id="0" precision="I64">
					<dim>1</dim>
				</port>
			</output>
		</layer>
		<layer id="366" name="Slice_5/Cast_238264_const" type="Const" version="opset1">
			<data element_type="i64" offset="2162380" shape="1" size="8"/>
			<output>
				<port id="0" precision="I64">
					<dim>1</dim>
				</port>
			</output>
		</layer>
		<layer id="367" name="Slice_5/Cast_338266_const" type="Const" version="opset1">
			<data element_type="i64" offset="2152204" shape="1" size="8"/>
			<output>
				<port id="0" precision="I64">
					<dim>1</dim>
				</port>
			</output>
		</layer>
		<layer id="368" name="Slice_5" type="StridedSlice" version="opset1">
			<data begin_mask="0" ellipsis_mask="0" end_mask="0" new_axis_mask="0" shrink_axis_mask="0"/>
			<input>
				<port id="0">
					<dim>4</dim>
				</port>
				<port id="1">
					<dim>1</dim>
				</port>
				<port id="2">
					<dim>1</dim>
				</port>
				<port id="3">
					<dim>1</dim>
				</port>
			</input>
			<output>
				<port id="4" names="355" precision="I64">
					<dim>2</dim>
				</port>
			</output>
		</layer>
		<layer id="369" name="Gather_4001235/Cast_138218_const" type="Const" version="opset1">
			<data element_type="i32" offset="2162376" shape="" size="4"/>
			<output>
				<port id="0" names="835" precision="I32"/>
			</output>
		</layer>
		<layer id="370" name="Gather_4001235/Cast_238220_const" type="Const" version="opset1">
			<data element_type="i64" offset="64" shape="" size="8"/>
			<output>
				<port id="0" precision="I64"/>
			</output>
		</layer>
		<layer id="371" name="Gather_4001235" type="Gather" version="opset1">
			<input>
				<port id="0">
					<dim>2</dim>
				</port>
				<port id="1"/>
				<port id="2"/>
			</input>
			<output>
				<port id="3" names="836" precision="I64"/>
			</output>
		</layer>
		<layer id="372" name="Cast_408" type="Convert" version="opset1">
			<data destination_type="f32"/>
			<input>
				<port id="0"/>
			</input>
			<output>
				<port id="1" names="844" precision="FP32"/>
			</output>
		</layer>
		<layer id="373" name="Reshape_410/Cast_138292_const" type="Const" version="opset1">
			<data element_type="i64" offset="2162476" shape="2" size="16"/>
			<output>
				<port id="0" names="845" precision="I64">
					<dim>2</dim>
				</port>
			</output>
		</layer>
		<layer id="374" name="Reshape_410" type="Reshape" version="opset1">
			<data special_zero="true"/>
			<input>
				<port id="0"/>
				<port id="1">
					<dim>2</dim>
				</port>
			</input>
			<output>
				<port id="2" names="846" precision="FP32">
					<dim>1</dim>
					<dim>1</dim>
				</port>
			</output>
		</layer>
		<layer id="375" name="Shape_411" type="ShapeOf" version="opset3">
			<data output_type="i64"/>
			<input>
				<port id="0">
					<dim>4096</dim>
					<dim>1</dim>
				</port>
			</input>
			<output>
				<port id="1" names="847" precision="I64">
					<dim>2</dim>
				</port>
			</output>
		</layer>
		<layer id="376" name="Expand_412" type="Broadcast" version="opset3">
			<data mode="bidirectional"/>
			<input>
				<port id="0">
					<dim>1</dim>
					<dim>1</dim>
				</port>
				<port id="1">
					<dim>2</dim>
				</port>
			</input>
			<output>
				<port id="2" names="848" precision="FP32">
					<dim>4096</dim>
					<dim>1</dim>
				</port>
			</output>
		</layer>
		<layer id="377" name="Unsqueeze_414/Dims/Output_0/Data__const" type="Const" version="opset1">
			<data element_type="i64" offset="2152232" shape="1" size="8"/>
			<output>
				<port id="0" precision="I64">
					<dim>1</dim>
				</port>
			</output>
		</layer>
		<layer id="378" name="Unsqueeze_414/Unsqueeze" type="Unsqueeze" version="opset1">
			<input>
				<port id="0">
					<dim>4096</dim>
					<dim>1</dim>
				</port>
				<port id="1">
					<dim>1</dim>
				</port>
			</input>
			<output>
				<port id="2" names="850" precision="FP32">
					<dim>4096</dim>
					<dim>1</dim>
					<dim>1</dim>
				</port>
			</output>
		</layer>
		<layer id="379" name="Concat_415" type="Concat" version="opset1">
			<data axis="2"/>
			<input>
				<port id="0">
					<dim>4096</dim>
					<dim>1</dim>
					<dim>1</dim>
				</port>
				<port id="1">
					<dim>4096</dim>
					<dim>1</dim>
					<dim>1</dim>
				</port>
			</input>
			<output>
				<port id="2" names="851" precision="FP32">
					<dim>4096</dim>
					<dim>1</dim>
					<dim>2</dim>
				</port>
			</output>
		</layer>
		<layer id="380" name="ReduceMin_416/Cast_138094_const" type="Const" version="opset1">
			<data element_type="i64" offset="2152232" shape="1" size="8"/>
			<output>
				<port id="0" precision="I64">
					<dim>1</dim>
				</port>
			</output>
		</layer>
		<layer id="381" name="ReduceMin_416" type="ReduceMin" version="opset1">
			<data keep_dims="false"/>
			<input>
				<port id="0">
					<dim>4096</dim>
					<dim>1</dim>
					<dim>2</dim>
				</port>
				<port id="1">
					<dim>1</dim>
				</port>
			</input>
			<output>
				<port id="2" names="852" precision="FP32">
					<dim>4096</dim>
					<dim>1</dim>
				</port>
			</output>
		</layer>
		<layer id="382" name="Unsqueeze_471/Dims/Output_0/Data__const" type="Const" version="opset1">
			<data element_type="i64" offset="2152232" shape="1" size="8"/>
			<output>
				<port id="0" precision="I64">
					<dim>1</dim>
				</port>
			</output>
		</layer>
		<layer id="383" name="Unsqueeze_471/Unsqueeze" type="Unsqueeze" version="opset1">
			<input>
				<port id="0">
					<dim>4096</dim>
					<dim>1</dim>
				</port>
				<port id="1">
					<dim>1</dim>
				</port>
			</input>
			<output>
				<port id="2" names="907" precision="FP32">
					<dim>4096</dim>
					<dim>1</dim>
					<dim>1</dim>
				</port>
			</output>
		</layer>
		<layer id="384" name="Gather_3541201/Cast_138008_const" type="Const" version="opset1">
			<data element_type="i32" offset="2162376" shape="" size="4"/>
			<output>
				<port id="0" names="789" precision="I32"/>
			</output>
		</layer>
		<layer id="385" name="Gather_3541201/Cast_238010_const" type="Const" version="opset1">
			<data element_type="i64" offset="2152204" shape="" size="8"/>
			<output>
				<port id="0" precision="I64"/>
			</output>
		</layer>
		<layer id="386" name="Gather_3541201" type="Gather" version="opset1">
			<input>
				<port id="0">
					<dim>4096</dim>
					<dim>4</dim>
				</port>
				<port id="1"/>
				<port id="2"/>
			</input>
			<output>
				<port id="3" names="790" precision="FP32">
					<dim>4096</dim>
				</port>
			</output>
		</layer>
		<layer id="387" name="Gather_3561237/Cast_138420_const" type="Const" version="opset1">
			<data element_type="i32" offset="2152200" shape="" size="4"/>
			<output>
				<port id="0" names="791" precision="I32"/>
			</output>
		</layer>
		<layer id="388" name="Gather_3561237/Cast_238422_const" type="Const" version="opset1">
			<data element_type="i64" offset="2152204" shape="" size="8"/>
			<output>
				<port id="0" precision="I64"/>
			</output>
		</layer>
		<layer id="389" name="Gather_3561237" type="Gather" version="opset1">
			<input>
				<port id="0">
					<dim>4096</dim>
					<dim>4</dim>
				</port>
				<port id="1"/>
				<port id="2"/>
			</input>
			<output>
				<port id="3" names="792" precision="FP32">
					<dim>4096</dim>
				</port>
			</output>
		</layer>
		<layer id="390" name="Add_357" type="Add" version="opset1">
			<data auto_broadcast="numpy"/>
			<input>
				<port id="0">
					<dim>4096</dim>
				</port>
				<port id="1">
					<dim>4096</dim>
				</port>
			</input>
			<output>
				<port id="2" names="793" precision="FP32">
					<dim>4096</dim>
				</port>
			</output>
		</layer>
		<layer id="391" name="794/EltwiseUnsqueeze17105_const" type="Const" version="opset1">
			<data element_type="f32" offset="2152284" shape="1" size="4"/>
			<output>
				<port id="0" names="794" precision="FP32">
					<dim>1</dim>
				</port>
			</output>
		</layer>
		<layer id="392" name="Mul_359" type="Multiply" version="opset1">
			<data auto_broadcast="numpy"/>
			<input>
				<port id="0">
					<dim>4096</dim>
				</port>
				<port id="1">
					<dim>1</dim>
				</port>
			</input>
			<output>
				<port id="2" names="795" precision="FP32">
					<dim>4096</dim>
				</port>
			</output>
		</layer>
		<layer id="393" name="Unsqueeze_360/Dims/Output_0/Data__const" type="Const" version="opset1">
			<data element_type="i64" offset="2152204" shape="1" size="8"/>
			<output>
				<port id="0" precision="I64">
					<dim>1</dim>
				</port>
			</output>
		</layer>
		<layer id="394" name="Unsqueeze_360/Unsqueeze" type="Unsqueeze" version="opset1">
			<input>
				<port id="0">
					<dim>4096</dim>
				</port>
				<port id="1">
					<dim>1</dim>
				</port>
			</input>
			<output>
				<port id="2" names="796" precision="FP32">
					<dim>4096</dim>
					<dim>1</dim>
				</port>
			</output>
		</layer>
		<layer id="395" name="Slice_330/Cast_138230_const" type="Const" version="opset1">
			<data element_type="i64" offset="2162492" shape="2" size="16"/>
			<output>
				<port id="0" precision="I64">
					<dim>2</dim>
				</port>
			</output>
		</layer>
		<layer id="396" name="Slice_330/Cast_238232_const" type="Const" version="opset1">
			<data element_type="i64" offset="2162420" shape="2" size="16"/>
			<output>
				<port id="0" precision="I64">
					<dim>2</dim>
				</port>
			</output>
		</layer>
		<layer id="397" name="Slice_330/Cast_338234_const" type="Const" version="opset1">
			<data element_type="i64" offset="2162436" shape="2" size="16"/>
			<output>
				<port id="0" precision="I64">
					<dim>2</dim>
				</port>
			</output>
		</layer>
		<layer id="398" name="Slice_330" type="StridedSlice" version="opset1">
			<data begin_mask="1,0" ellipsis_mask="0,0" end_mask="1,0" new_axis_mask="0,0" shrink_axis_mask="0,0"/>
			<input>
				<port id="0">
					<dim>4096</dim>
					<dim>4</dim>
				</port>
				<port id="1">
					<dim>2</dim>
				</port>
				<port id="2">
					<dim>2</dim>
				</port>
				<port id="3">
					<dim>2</dim>
				</port>
			</input>
			<output>
				<port id="4" names="758" precision="FP32">
					<dim>4096</dim>
					<dim>1</dim>
				</port>
			</output>
		</layer>
		<layer id="399" name="Shape_361" type="ShapeOf" version="opset3">
			<data output_type="i64"/>
			<input>
				<port id="0">
					<dim>4096</dim>
					<dim>1</dim>
				</port>
			</input>
			<output>
				<port id="1" names="797" precision="I64">
					<dim>2</dim>
				</port>
			</output>
		</layer>
		<layer id="400" name="Expand_362" type="Broadcast" version="opset3">
			<data mode="bidirectional"/>
			<input>
				<port id="0">
					<dim>4096</dim>
					<dim>1</dim>
				</port>
				<port id="1">
					<dim>2</dim>
				</port>
			</input>
			<output>
				<port id="2" names="798" precision="FP32">
					<dim>4096</dim>
					<dim>1</dim>
				</port>
			</output>
		</layer>
		<layer id="401" name="Gather_3721197/Cast_138102_const" type="Const" version="opset1">
			<data element_type="i32" offset="2152200" shape="" size="4"/>
			<output>
				<port id="0" names="807" precision="I32"/>
			</output>
		</layer>
…
		<edge from-layer="431" from-port="2" to-layer="433" to-port="0"/>
		<edge from-layer="432" from-port="0" to-layer="433" to-port="1"/>
		<edge from-layer="433" from-port="2" to-layer="435" to-port="0"/>
		<edge from-layer="434" from-port="0" to-layer="435" to-port="1"/>
		<edge from-layer="368" from-port="4" to-layer="438" to-port="0"/>
		<edge from-layer="436" from-port="0" to-layer="438" to-port="1"/>
		<edge from-layer="437" from-port="0" to-layer="438" to-port="2"/>
		<edge from-layer="438" from-port="3" to-layer="439" to-port="0"/>
		<edge from-layer="439" from-port="1" to-layer="441" to-port="0"/>
		<edge from-layer="440" from-port="0" to-layer="441" to-port="1"/>
		<edge from-layer="433" from-port="2" to-layer="442" to-port="0"/>
		<edge from-layer="441" from-port="2" to-layer="443" to-port="0"/>
		<edge from-layer="442" from-port="1" to-layer="443" to-port="1"/>
		<edge from-layer="443" from-port="2" to-layer="445" to-port="0"/>
		<edge from-layer="444" from-port="0" to-layer="445" to-port="1"/>
		<edge from-layer="435" from-port="2" to-layer="446" to-port="0"/>
		<edge from-layer="445" from-port="2" to-layer="446" to-port="1"/>
		<edge from-layer="446" from-port="2" to-layer="448" to-port="0"/>
		<edge from-layer="447" from-port="0" to-layer="448" to-port="1"/>
		<edge from-layer="448" from-port="2" to-layer="450" to-port="0"/>
		<edge from-layer="449" from-port="0" to-layer="450" to-port="1"/>
		<edge from-layer="348" from-port="2" to-layer="452" to-port="0"/>
		<edge from-layer="451" from-port="0" to-layer="452" to-port="1"/>
		<edge from-layer="346" from-port="2" to-layer="453" to-port="0"/>
		<edge from-layer="452" from-port="2" to-layer="453" to-port="1"/>
		<edge from-layer="453" from-port="2" to-layer="455" to-port="0"/>
		<edge from-layer="454" from-port="0" to-layer="455" to-port="1"/>
		<edge from-layer="453" from-port="2" to-layer="457" to-port="0"/>
		<edge from-layer="456" from-port="0" to-layer="458" to-port="0"/>
		<edge from-layer="457" from-port="1" to-layer="458" to-port="1"/>
		<edge from-layer="458" from-port="2" to-layer="460" to-port="0"/>
		<edge from-layer="459" from-port="0" to-layer="460" to-port="1"/>
		<edge from-layer="455" from-port="2" to-layer="461" to-port="0"/>
		<edge from-layer="460" from-port="2" to-layer="461" to-port="1"/>
		<edge from-layer="461" from-port="2" to-layer="463" to-port="0"/>
		<edge from-layer="462" from-port="0" to-layer="463" to-port="1"/>
		<edge from-layer="463" from-port="2" to-layer="465" to-port="0"/>
		<edge from-layer="464" from-port="0" to-layer="465" to-port="1"/>
		<edge from-layer="368" from-port="4" to-layer="468" to-port="0"/>
		<edge from-layer="466" from-port="0" to-layer="468" to-port="1"/>
		<edge from-layer="467" from-port="0" to-layer="468" to-port="2"/>
		<edge from-layer="468" from-port="3" to-layer="469" to-port="0"/>
		<edge from-layer="469" from-port="1" to-layer="471" to-port="0"/>
		<edge from-layer="470" from-port="0" to-layer="471" to-port="1"/>
		<edge from-layer="463" from-port="2" to-layer="472" to-port="0"/>
		<edge from-layer="471" from-port="2" to-layer="473" to-port="0"/>
		<edge from-layer="472" from-port="1" to-layer="473" to-port="1"/>
		<edge from-layer="473" from-port="2" to-layer="475" to-port="0"/>
		<edge from-layer="474" from-port="0" to-layer="475" to-port="1"/>
		<edge from-layer="465" from-port="2" to-layer="476" to-port="0"/>
		<edge from-layer="475" from-port="2" to-layer="476" to-port="1"/>
		<edge from-layer="476" from-port="2" to-layer="478" to-port="0"/>
		<edge from-layer="477" from-port="0" to-layer="478" to-port="1"/>
		<edge from-layer="478" from-port="2" to-layer="480" to-port="0"/>
		<edge from-layer="479" from-port="0" to-layer="480" to-port="1"/>
		<edge from-layer="420" from-port="2" to-layer="482" to-port="0"/>
		<edge from-layer="481" from-port="0" to-layer="482" to-port="1"/>
		<edge from-layer="418" from-port="2" to-layer="483" to-port="0"/>
		<edge from-layer="482" from-port="2" to-layer="483" to-port="1"/>
		<edge from-layer="483" from-port="2" to-layer="485" to-port="0"/>
		<edge from-layer="484" from-port="0" to-layer="485" to-port="1"/>
		<edge from-layer="483" from-port="2" to-layer="487" to-port="0"/>
		<edge from-layer="486" from-port="0" to-layer="488" to-port="0"/>
		<edge from-layer="487" from-port="1" to-layer="488" to-port="1"/>
		<edge from-layer="488" from-port="2" to-layer="490" to-port="0"/>
		<edge from-layer="489" from-port="0" to-layer="490" to-port="1"/>
		<edge from-layer="485" from-port="2" to-layer="491" to-port="0"/>
		<edge from-layer="490" from-port="2" to-layer="491" to-port="1"/>
		<edge from-layer="491" from-port="2" to-layer="493" to-port="0"/>
		<edge from-layer="492" from-port="0" to-layer="493" to-port="1"/>
		<edge from-layer="493" from-port="2" to-layer="495" to-port="0"/>
		<edge from-layer="494" from-port="0" to-layer="495" to-port="1"/>
		<edge from-layer="368" from-port="4" to-layer="498" to-port="0"/>
		<edge from-layer="496" from-port="0" to-layer="498" to-port="1"/>
		<edge from-layer="497" from-port="0" to-layer="498" to-port="2"/>
		<edge from-layer="498" from-port="3" to-layer="499" to-port="0"/>
		<edge from-layer="499" from-port="1" to-layer="501" to-port="0"/>
		<edge from-layer="500" from-port="0" to-layer="501" to-port="1"/>
		<edge from-layer="493" from-port="2" to-layer="502" to-port="0"/>
		<edge from-layer="501" from-port="2" to-layer="503" to-port="0"/>
		<edge from-layer="502" from-port="1" to-layer="503" to-port="1"/>
		<edge from-layer="503" from-port="2" to-layer="505" to-port="0"/>
		<edge from-layer="504" from-port="0" to-layer="505" to-port="1"/>
		<edge from-layer="495" from-port="2" to-layer="506" to-port="0"/>
		<edge from-layer="505" from-port="2" to-layer="506" to-port="1"/>
		<edge from-layer="506" from-port="2" to-layer="508" to-port="0"/>
		<edge from-layer="507" from-port="0" to-layer="508" to-port="1"/>
		<edge from-layer="508" from-port="2" to-layer="510" to-port="0"/>
		<edge from-layer="509" from-port="0" to-layer="510" to-port="1"/>
		<edge from-layer="383" from-port="2" to-layer="511" to-port="0"/>
		<edge from-layer="450" from-port="2" to-layer="511" to-port="1"/>
		<edge from-layer="480" from-port="2" to-layer="511" to-port="2"/>
		<edge from-layer="510" from-port="2" to-layer="511" to-port="3"/>
		<edge from-layer="280" from-port="2" to-layer="512" to-port="0"/>
		<edge from-layer="512" from-port="1" to-layer="515" to-port="0"/>
		<edge from-layer="513" from-port="0" to-layer="515" to-port="1"/>
		<edge from-layer="514" from-port="0" to-layer="515" to-port="2"/>
		<edge from-layer="515" from-port="3" to-layer="517" to-port="0"/>
		<edge from-layer="516" from-port="0" to-layer="517" to-port="1"/>
		<edge from-layer="280" from-port="2" to-layer="518" to-port="0"/>
		<edge from-layer="518" from-port="1" to-layer="521" to-port="0"/>
		<edge from-layer="519" from-port="0" to-layer="521" to-port="1"/>
		<edge from-layer="520" from-port="0" to-layer="521" to-port="2"/>
		<edge from-layer="521" from-port="3" to-layer="523" to-port="0"/>
		<edge from-layer="522" from-port="0" to-layer="523" to-port="1"/>
		<edge from-layer="517" from-port="2" to-layer="524" to-port="0"/>
		<edge from-layer="523" from-port="2" to-layer="524" to-port="1"/>
		<edge from-layer="511" from-port="4" to-layer="525" to-port="0"/>
		<edge from-layer="524" from-port="2" to-layer="525" to-port="1"/>
		<edge from-layer="197" from-port="2" to-layer="529" to-port="0"/>
		<edge from-layer="528" from-port="0" to-layer="529" to-port="1"/>
		<edge from-layer="529" from-port="2" to-layer="531" to-port="0"/>
		<edge from-layer="530" from-port="0" to-layer="531" to-port="1"/>
		<edge from-layer="531" from-port="2" to-layer="532" to-port="0"/>
		<edge from-layer="532" from-port="1" to-layer="534" to-port="0"/>
		<edge from-layer="533" from-port="0" to-layer="534" to-port="1"/>
		<edge from-layer="534" from-port="2" to-layer="536" to-port="0"/>
		<edge from-layer="535" from-port="0" to-layer="536" to-port="1"/>
		<edge from-layer="536" from-port="2" to-layer="537" to-port="0"/>
		<edge from-layer="537" from-port="1" to-layer="539" to-port="0"/>
		<edge from-layer="538" from-port="0" to-layer="539" to-port="1"/>
		<edge from-layer="539" from-port="2" to-layer="541" to-port="0"/>
		<edge from-layer="540" from-port="0" to-layer="541" to-port="1"/>
		<edge from-layer="541" from-port="2" to-layer="543" to-port="0"/>
		<edge from-layer="542" from-port="0" to-layer="543" to-port="1"/>
		<edge from-layer="543" from-port="2" to-layer="545" to-port="0"/>
		<edge from-layer="544" from-port="0" to-layer="545" to-port="1"/>
		<edge from-layer="545" from-port="2" to-layer="546" to-port="0"/>
		<edge from-layer="546" from-port="1" to-layer="548" to-port="0"/>
		<edge from-layer="547" from-port="0" to-layer="548" to-port="1"/>
		<edge from-layer="548" from-port="2" to-layer="550" to-port="0"/>
		<edge from-layer="549" from-port="0" to-layer="550" to-port="1"/>
		<edge from-layer="550" from-port="2" to-layer="551" to-port="0"/>
		<edge from-layer="551" from-port="1" to-layer="553" to-port="0"/>
		<edge from-layer="552" from-port="0" to-layer="553" to-port="1"/>
		<edge from-layer="553" from-port="2" to-layer="555" to-port="0"/>
		<edge from-layer="554" from-port="0" to-layer="555" to-port="1"/>
		<edge from-layer="555" from-port="2" to-layer="556" to-port="0"/>
		<edge from-layer="541" from-port="2" to-layer="556" to-port="1"/>
		<edge from-layer="556" from-port="2" to-layer="558" to-port="0"/>
		<edge from-layer="557" from-port="0" to-layer="558" to-port="1"/>
		<edge from-layer="558" from-port="2" to-layer="560" to-port="0"/>
		<edge from-layer="559" from-port="0" to-layer="560" to-port="1"/>
		<edge from-layer="560" from-port="2" to-layer="561" to-port="0"/>
		<edge from-layer="561" from-port="1" to-layer="563" to-port="0"/>
		<edge from-layer="562" from-port="0" to-layer="563" to-port="1"/>
		<edge from-layer="563" from-port="2" to-layer="565" to-port="0"/>
		<edge from-layer="564" from-port="0" to-layer="565" to-port="1"/>
		<edge from-layer="565" from-port="2" to-layer="566" to-port="0"/>
		<edge from-layer="566" from-port="1" to-layer="568" to-port="0"/>
		<edge from-layer="567" from-port="0" to-layer="568" to-port="1"/>
		<edge from-layer="568" from-port="2" to-layer="570" to-port="0"/>
		<edge from-layer="569" from-port="0" to-layer="570" to-port="1"/>
		<edge from-layer="570" from-port="2" to-layer="571" to-port="0"/>
		<edge from-layer="556" from-port="2" to-layer="571" to-port="1"/>
		<edge from-layer="571" from-port="2" to-layer="573" to-port="0"/>
		<edge from-layer="572" from-port="0" to-layer="573" to-port="1"/>
		<edge from-layer="573" from-port="2" to-layer="575" to-port="0"/>
		<edge from-layer="574" from-port="0" to-layer="575" to-port="1"/>
		<edge from-layer="575" from-port="2" to-layer="576" to-port="0"/>
		<edge from-layer="576" from-port="1" to-layer="578" to-port="0"/>
		<edge from-layer="577" from-port="0" to-layer="578" to-port="1"/>
		<edge from-layer="578" from-port="2" to-layer="580" to-port="0"/>
		<edge from-layer="579" from-port="0" to-layer="580" to-port="1"/>
		<edge from-layer="580" from-port="2" to-layer="581" to-port="0"/>
		<edge from-layer="581" from-port="1" to-layer="583" to-port="0"/>
		<edge from-layer="582" from-port="0" to-layer="583" to-port="1"/>
		<edge from-layer="583" from-port="2" to-layer="585" to-port="0"/>
		<edge from-layer="584" from-port="0" to-layer="585" to-port="1"/>
		<edge from-layer="585" from-port="2" to-layer="587" to-port="0"/>
		<edge from-layer="586" from-port="0" to-layer="587" to-port="1"/>
		<edge from-layer="587" from-port="2" to-layer="589" to-port="0"/>
		<edge from-layer="588" from-port="0" to-layer="589" to-port="1"/>
		<edge from-layer="589" from-port="2" to-layer="590" to-port="0"/>
		<edge from-layer="590" from-port="1" to-layer="592" to-port="0"/>
		<edge from-layer="591" from-port="0" to-layer="592" to-port="1"/>
		<edge from-layer="592" from-port="2" to-layer="594" to-port="0"/>
		<edge from-layer="593" from-port="0" to-layer="594" to-port="1"/>
		<edge from-layer="594" from-port="2" to-layer="595" to-port="0"/>
		<edge from-layer="595" from-port="1" to-layer="598" to-port="0"/>
		<edge from-layer="596" from-port="0" to-layer="598" to-port="1"/>
		<edge from-layer="597" from-port="0" to-layer="598" to-port="2"/>
		<edge from-layer="527" from-port="0" to-layer="600" to-port="0"/>
		<edge from-layer="598" from-port="3" to-layer="600" to-port="1"/>
		<edge from-layer="599" from-port="0" to-layer="600" to-port="2"/>
		<edge from-layer="600" from-port="3" to-layer="602" to-port="0"/>
		<edge from-layer="601" from-port="0" to-layer="602" to-port="1"/>
		<edge from-layer="602" from-port="2" to-layer="604" to-port="0"/>
		<edge from-layer="603" from-port="0" to-layer="604" to-port="1"/>
		<edge from-layer="604" from-port="2" to-layer="606" to-port="0"/>
		<edge from-layer="605" from-port="0" to-layer="607" to-port="0"/>
		<edge from-layer="606" from-port="1" to-layer="607" to-port="1"/>
		<edge from-layer="604" from-port="2" to-layer="608" to-port="0"/>
		<edge from-layer="607" from-port="2" to-layer="608" to-port="1"/>
		<edge from-layer="594" from-port="2" to-layer="610" to-port="0"/>
		<edge from-layer="610" from-port="1" to-layer="613" to-port="0"/>
		<edge from-layer="611" from-port="0" to-layer="613" to-port="1"/>
		<edge from-layer="612" from-port="0" to-layer="613" to-port="2"/>
		<edge from-layer="609" from-port="0" to-layer="615" to-port="0"/>
		<edge from-layer="613" from-port="3" to-layer="615" to-port="1"/>
		<edge from-layer="614" from-port="0" to-layer="615" to-port="2"/>
		<edge from-layer="615" from-port="3" to-layer="617" to-port="0"/>
		<edge from-layer="616" from-port="0" to-layer="617" to-port="1"/>
		<edge from-layer="617" from-port="2" to-layer="619" to-port="0"/>
		<edge from-layer="618" from-port="0" to-layer="619" to-port="1"/>
		<edge from-layer="619" from-port="2" to-layer="620" to-port="0"/>
		<edge from-layer="620" from-port="1" to-layer="621" to-port="0"/>
		<edge from-layer="606" from-port="1" to-layer="621" to-port="1"/>
		<edge from-layer="608" from-port="2" to-layer="622" to-port="0"/>
		<edge from-layer="621" from-port="2" to-layer="622" to-port="1"/>
		<edge from-layer="622" from-port="2" to-layer="624" to-port="0"/>
		<edge from-layer="623" from-port="0" to-layer="624" to-port="1"/>
		<edge from-layer="620" from-port="1" to-layer="626" to-port="0"/>
		<edge from-layer="625" from-port="0" to-layer="626" to-port="1"/>
		<edge from-layer="619" from-port="2" to-layer="627" to-port="0"/>
		<edge from-layer="626" from-port="2" to-layer="627" to-port="1"/>
		<edge from-layer="627" from-port="2" to-layer="628" to-port="0"/>
		<edge from-layer="621" from-port="2" to-layer="628" to-port="1"/>
		<edge from-layer="628" from-port="2" to-layer="630" to-port="0"/>
		<edge from-layer="629" from-port="0" to-layer="630" to-port="1"/>
		<edge from-layer="622" from-port="2" to-layer="632" to-port="0"/>
		<edge from-layer="631" from-port="0" to-layer="632" to-port="1"/>
		<edge from-layer="628" from-port="2" to-layer="634" to-port="0"/>
		<edge from-layer="633" from-port="0" to-layer="634" to-port="1"/>
		<edge from-layer="624" from-port="2" to-layer="635" to-port="0"/>
		<edge from-layer="630" from-port="2" to-layer="635" to-port="1"/>
		<edge from-layer="632" from-port="2" to-layer="635" to-port="2"/>
		<edge from-layer="634" from-port="2" to-layer="635" to-port="3"/>
		<edge from-layer="635" from-port="4" to-layer="637" to-port="0"/>
		<edge from-layer="636" from-port="0" to-layer="637" to-port="1"/>
		<edge from-layer="637" from-port="2" to-layer="638" to-port="0"/>
		<edge from-layer="526" from-port="0" to-layer="639" to-port="0"/>
		<edge from-layer="638" from-port="1" to-layer="639" to-port="1"/>
		<edge from-layer="639" from-port="2" to-layer="641" to-port="0"/>
		<edge from-layer="640" from-port="0" to-layer="641" to-port="1"/>
		<edge from-layer="641" from-port="2" to-layer="644" to-port="0"/>
		<edge from-layer="642" from-port="0" to-layer="644" to-port="1"/>
		<edge from-layer="643" from-port="0" to-layer="644" to-port="2"/>
		<edge from-layer="641" from-port="2" to-layer="647" to-port="0"/>
		<edge from-layer="645" from-port="0" to-layer="647" to-port="1"/>
		<edge from-layer="646" from-port="0" to-layer="647" to-port="2"/>
		<edge from-layer="644" from-port="3" to-layer="648" to-port="0"/>
		<edge from-layer="647" from-port="3" to-layer="648" to-port="1"/>
		<edge from-layer="648" from-port="2" to-layer="650" to-port="0"/>
		<edge from-layer="649" from-port="0" to-layer="650" to-port="1"/>
		<edge from-layer="650" from-port="2" to-layer="652" to-port="0"/>
		<edge from-layer="651" from-port="0" to-layer="652" to-port="1"/>
		<edge from-layer="585" from-port="2" to-layer="654" to-port="0"/>
		<edge from-layer="653" from-port="0" to-layer="654" to-port="1"/>
		<edge from-layer="654" from-port="2" to-layer="656" to-port="0"/>
		<edge from-layer="655" from-port="0" to-layer="656" to-port="1"/>
		<edge from-layer="656" from-port="2" to-layer="657" to-port="0"/>
		<edge from-layer="657" from-port="1" to-layer="659" to-port="0"/>
		<edge from-layer="658" from-port="0" to-layer="659" to-port="1"/>
		<edge from-layer="659" from-port="2" to-layer="661" to-port="0"/>
		<edge from-layer="660" from-port="0" to-layer="661" to-port="1"/>
		<edge from-layer="661" from-port="2" to-layer="664" to-port="0"/>
		<edge from-layer="662" from-port="0" to-layer="664" to-port="1"/>
		<edge from-layer="663" from-port="0" to-layer="664" to-port="2"/>
		<edge from-layer="664" from-port="3" to-layer="666" to-port="0"/>
		<edge from-layer="665" from-port="0" to-layer="666" to-port="1"/>
		<edge from-layer="666" from-port="2" to-layer="668" to-port="0"/>
		<edge from-layer="667" from-port="0" to-layer="668" to-port="1"/>
		<edge from-layer="668" from-port="2" to-layer="672" to-port="0"/>
		<edge from-layer="672" from-port="1" to-layer="675" to-port="0"/>
		<edge from-layer="673" from-port="0" to-layer="675" to-port="1"/>
		<edge from-layer="674" from-port="0" to-layer="675" to-port="2"/>
		<edge from-layer="675" from-port="3" to-layer="677" to-port="0"/>
		<edge from-layer="676" from-port="0" to-layer="677" to-port="1"/>
		<edge from-layer="677" from-port="2" to-layer="679" to-port="0"/>
		<edge from-layer="678" from-port="0" to-layer="679" to-port="1"/>
		<edge from-layer="671" from-port="0" to-layer="680" to-port="0"/>
		<edge from-layer="679" from-port="2" to-layer="680" to-port="1"/>
		<edge from-layer="680" from-port="2" to-layer="681" to-port="0"/>
		<edge from-layer="670" from-port="0" to-layer="682" to-port="0"/>
		<edge from-layer="681" from-port="1" to-layer="682" to-port="1"/>
		<edge from-layer="669" from-port="0" to-layer="683" to-port="0"/>
		<edge from-layer="682" from-port="2" to-layer="683" to-port="1"/>
		<edge from-layer="677" from-port="2" to-layer="686" to-port="0"/>
		<edge from-layer="685" from-port="0" to-layer="686" to-port="1"/>
		<edge from-layer="684" from-port="0" to-layer="687" to-port="0"/>
		<edge from-layer="686" from-port="2" to-layer="687" to-port="1"/>
		<edge from-layer="683" from-port="2" to-layer="688" to-port="0"/>
		<edge from-layer="687" from-port="2" to-layer="688" to-port="1"/>
		<edge from-layer="668" from-port="2" to-layer="689" to-port="0"/>
		<edge from-layer="688" from-port="2" to-layer="689" to-port="1"/>
		<edge from-layer="668" from-port="2" to-layer="693" to-port="0"/>
		<edge from-layer="693" from-port="1" to-layer="696" to-port="0"/>
		<edge from-layer="694" from-port="0" to-layer="696" to-port="1"/>
		<edge from-layer="695" from-port="0" to-layer="696" to-port="2"/>
		<edge from-layer="696" from-port="3" to-layer="698" to-port="0"/>
		<edge from-layer="697" from-port="0" to-layer="698" to-port="1"/>
		<edge from-layer="698" from-port="2" to-layer="700" to-port="0"/>
		<edge from-layer="699" from-port="0" to-layer="700" to-port="1"/>
		<edge from-layer="692" from-port="0" to-layer="701" to-port="0"/>
		<edge from-layer="700" from-port="2" to-layer="701" to-port="1"/>
		<edge from-layer="701" from-port="2" to-layer="702" to-port="0"/>
		<edge from-layer="691" from-port="0" to-layer="703" to-port="0"/>
		<edge from-layer="702" from-port="1" to-layer="703" to-port="1"/>
		<edge from-layer="690" from-port="0" to-layer="704" to-port="0"/>
		<edge from-layer="703" from-port="2" to-layer="704" to-port="1"/>
		<edge from-layer="698" from-port="2" to-layer="707" to-port="0"/>
		<edge from-layer="706" from-port="0" to-layer="707" to-port="1"/>
		<edge from-layer="705" from-port="0" to-layer="708" to-port="0"/>
		<edge from-layer="707" from-port="2" to-layer="708" to-port="1"/>
		<edge from-layer="704" from-port="2" to-layer="709" to-port="0"/>
		<edge from-layer="708" from-port="2" to-layer="709" to-port="1"/>
		<edge from-layer="689" from-port="2" to-layer="710" to-port="0"/>
		<edge from-layer="709" from-port="2" to-layer="710" to-port="1"/>
		<edge from-layer="710" from-port="2" to-layer="714" to-port="0"/>
		<edge from-layer="711" from-port="0" to-layer="714" to-port="1"/>
		<edge from-layer="712" from-port="0" to-layer="714" to-port="2"/>
		<edge from-layer="713" from-port="0" to-layer="714" to-port="3"/>
		<edge from-layer="714" from-port="4" to-layer="715" to-port="0"/>
		<edge from-layer="652" from-port="2" to-layer="716" to-port="0"/>
		<edge from-layer="715" from-port="1" to-layer="716" to-port="1"/>
		<edge from-layer="641" from-port="2" to-layer="719" to-port="0"/>
		<edge from-layer="717" from-port="0" to-layer="719" to-port="1"/>
		<edge from-layer="718" from-port="0" to-layer="719" to-port="2"/>
		<edge from-layer="641" from-port="2" to-layer="722" to-port="0"/>
		<edge from-layer="720" from-port="0" to-layer="722" to-port="1"/>
		<edge from-layer="721" from-port="0" to-layer="722" to-port="2"/>
		<edge from-layer="719" from-port="3" to-layer="723" to-port="0"/>
		<edge from-layer="722" from-port="3" to-layer="723" to-port="1"/>
		<edge from-layer="723" from-port="2" to-layer="725" to-port="0"/>
		<edge from-layer="724" from-port="0" to-layer="725" to-port="1"/>
		<edge from-layer="710" from-port="2" to-layer="729" to-port="0"/>
		<edge from-layer="726" from-port="0" to-layer="729" to-port="1"/>
		<edge from-layer="727" from-port="0" to-layer="729" to-port="2"/>
		<edge from-layer="728" from-port="0" to-layer="729" to-port="3"/>
		<edge from-layer="729" from-port="4" to-layer="730" to-port="0"/>
		<edge from-layer="730" from-port="1" to-layer="731" to-port="0"/>
		<edge from-layer="725" from-port="2" to-layer="732" to-port="0"/>
		<edge from-layer="731" from-port="1" to-layer="732" to-port="1"/>
		<edge from-layer="732" from-port="2" to-layer="733" to-port="0"/>
		<edge from-layer="714" from-port="4" to-layer="733" to-port="1"/>
		<edge from-layer="716" from-port="2" to-layer="734" to-port="0"/>
		<edge from-layer="733" from-port="2" to-layer="734" to-port="1"/>
		<edge from-layer="730" from-port="1" to-layer="735" to-port="0"/>
		<edge from-layer="732" from-port="2" to-layer="736" to-port="0"/>
		<edge from-layer="735" from-port="1" to-layer="736" to-port="1"/>
		<edge from-layer="736" from-port="2" to-layer="738" to-port="0"/>
		<edge from-layer="737" from-port="0" to-layer="738" to-port="1"/>
		<edge from-layer="734" from-port="2" to-layer="739" to-port="0"/>
		<edge from-layer="738" from-port="2" to-layer="739" to-port="1"/>
		<edge from-layer="739" from-port="2" to-layer="741" to-port="0"/>
		<edge from-layer="740" from-port="0" to-layer="741" to-port="1"/>
		<edge from-layer="739" from-port="2" to-layer="743" to-port="0"/>
		<edge from-layer="742" from-port="0" to-layer="744" to-port="0"/>
		<edge from-layer="743" from-port="1" to-layer="744" to-port="1"/>
		<edge from-layer="744" from-port="2" to-layer="746" to-port="0"/>
		<edge from-layer="745" from-port="0" to-layer="746" to-port="1"/>
		<edge from-layer="741" from-port="2" to-layer="747" to-port="0"/>
		<edge from-layer="746" from-port="2" to-layer="747" to-port="1"/>
		<edge from-layer="747" from-port="2" to-layer="749" to-port="0"/>
		<edge from-layer="748" from-port="0" to-layer="749" to-port="1"/>
		<edge from-layer="749" from-port="2" to-layer="751" to-port="0"/>
		<edge from-layer="750" from-port="0" to-layer="751" to-port="1"/>
		<edge from-layer="368" from-port="4" to-layer="754" to-port="0"/>
		<edge from-layer="752" from-port="0" to-layer="754" to-port="1"/>
		<edge from-layer="753" from-port="0" to-layer="754" to-port="2"/>
		<edge from-layer="754" from-port="3" to-layer="755" to-port="0"/>
		<edge from-layer="755" from-port="1" to-layer="757" to-port="0"/>
		<edge from-layer="756" from-port="0" to-layer="757" to-port="1"/>
		<edge from-layer="749" from-port="2" to-layer="758" to-port="0"/>
		<edge from-layer="757" from-port="2" to-layer="759" to-port="0"/>
		<edge from-layer="758" from-port="1" to-layer="759" to-port="1"/>
		<edge from-layer="759" from-port="2" to-layer="761" to-port="0"/>
		<edge from-layer="760" from-port="0" to-layer="761" to-port="1"/>
		<edge from-layer="751" from-port="2" to-layer="762" to-port="0"/>
		<edge from-layer="761" from-port="2" to-layer="762" to-port="1"/>
		<edge from-layer="762" from-port="2" to-layer="764" to-port="0"/>
		<edge from-layer="763" from-port="0" to-layer="764" to-port="1"/>
		<edge from-layer="764" from-port="2" to-layer="766" to-port="0"/>
		<edge from-layer="765" from-port="0" to-layer="766" to-port="1"/>
		<edge from-layer="641" from-port="2" to-layer="769" to-port="0"/>
		<edge from-layer="767" from-port="0" to-layer="769" to-port="1"/>
		<edge from-layer="768" from-port="0" to-layer="769" to-port="2"/>
		<edge from-layer="641" from-port="2" to-layer="772" to-port="0"/>
		<edge from-layer="770" from-port="0" to-layer="772" to-port="1"/>
		<edge from-layer="771" from-port="0" to-layer="772" to-port="2"/>
		<edge from-layer="769" from-port="3" to-layer="773" to-port="0"/>
		<edge from-layer="772" from-port="3" to-layer="773" to-port="1"/>
		<edge from-layer="773" from-port="2" to-layer="775" to-port="0"/>
		<edge from-layer="774" from-port="0" to-layer="775" to-port="1"/>
		<edge from-layer="775" from-port="2" to-layer="777" to-port="0"/>
		<edge from-layer="776" from-port="0" to-layer="777" to-port="1"/>
		<edge from-layer="710" from-port="2" to-layer="781" to-port="0"/>
		<edge from-layer="778" from-port="0" to-layer="781" to-port="1"/>
		<edge from-layer="779" from-port="0" to-layer="781" to-port="2"/>
		<edge from-layer="780" from-port="0" to-layer="781" to-port="3"/>
		<edge from-layer="781" from-port="4" to-layer="782" to-port="0"/>
		<edge from-layer="777" from-port="2" to-layer="783" to-port="0"/>
		<edge from-layer="782" from-port="1" to-layer="783" to-port="1"/>
		<edge from-layer="641" from-port="2" to-layer="786" to-port="0"/>
		<edge from-layer="784" from-port="0" to-layer="786" to-port="1"/>
		<edge from-layer="785" from-port="0" to-layer="786" to-port="2"/>
		<edge from-layer="641" from-port="2" to-layer="789" to-port="0"/>
		<edge from-layer="787" from-port="0" to-layer="789" to-port="1"/>
		<edge from-layer="788" from-port="0" to-layer="789" to-port="2"/>
		<edge from-layer="786" from-port="3" to-layer="790" to-port="0"/>
		<edge from-layer="789" from-port="3" to-layer="790" to-port="1"/>
		<edge from-layer="790" from-port="2" to-layer="792" to-port="0"/>
		<edge from-layer="791" from-port="0" to-layer="792" to-port="1"/>
		<edge from-layer="710" from-port="2" to-layer="796" to-port="0"/>
		<edge from-layer="793" from-port="0" to-layer="796" to-port="1"/>
		<edge from-layer="794" from-port="0" to-layer="796" to-port="2"/>
		<edge from-layer="795" from-port="0" to-layer="796" to-port="3"/>
		<edge from-layer="796" from-port="4" to-layer="797" to-port="0"/>
		<edge from-layer="797" from-port="1" to-layer="798" to-port="0"/>
		<edge from-layer="792" from-port="2" to-layer="799" to-port="0"/>
		<edge from-layer="798" from-port="1" to-layer="799" to-port="1"/>
		<edge from-layer="799" from-port="2" to-layer="800" to-port="0"/>
		<edge from-layer="781" from-port="4" to-layer="800" to-port="1"/>
		<edge from-layer="783" from-port="2" to-layer="801" to-port="0"/>
		<edge from-layer="800" from-port="2" to-layer="801" to-port="1"/>
		<edge from-layer="797" from-port="1" to-layer="802" to-port="0"/>
		<edge from-layer="799" from-port="2" to-layer="803" to-port="0"/>
		<edge from-layer="802" from-port="1" to-layer="803" to-port="1"/>
		<edge from-layer="803" from-port="2" to-layer="805" to-port="0"/>
		<edge from-layer="804" from-port="0" to-layer="805" to-port="1"/>
		<edge from-layer="801" from-port="2" to-layer="806" to-port="0"/>
		<edge from-layer="805" from-port="2" to-layer="806" to-port="1"/>
		<edge from-layer="806" from-port="2" to-layer="808" to-port="0"/>
		<edge from-layer="807" from-port="0" to-layer="808" to-port="1"/>
		<edge from-layer="806" from-port="2" to-layer="810" to-port="0"/>
		<edge from-layer="809" from-port="0" to-layer="811" to-port="0"/>
		<edge from-layer="810" from-port="1" to-layer="811" to-port="1"/>
		<edge from-layer="811" from-port="2" to-layer="813" to-port="0"/>
		<edge from-layer="812" from-port="0" to-layer="813" to-port="1"/>
		<edge from-layer="808" from-port="2" to-layer="814" to-port="0"/>
		<edge from-layer="813" from-port="2" to-layer="814" to-port="1"/>
		<edge from-layer="814" from-port="2" to-layer="816" to-port="0"/>
		<edge from-layer="815" from-port="0" to-layer="816" to-port="1"/>
		<edge from-layer="816" from-port="2" to-layer="818" to-port="0"/>
		<edge from-layer="817" from-port="0" to-layer="818" to-port="1"/>
		<edge from-layer="368" from-port="4" to-layer="821" to-port="0"/>
		<edge from-layer="819" from-port="0" to-layer="821" to-port="1"/>
		<edge from-layer="820" from-port="0" to-layer="821" to-port="2"/>
		<edge from-layer="821" from-port="3" to-layer="822" to-port="0"/>
		<edge from-layer="822" from-port="1" to-layer="824" to-port="0"/>
		<edge from-layer="823" from-port="0" to-layer="824" to-port="1"/>
		<edge from-layer="816" from-port="2" to-layer="825" to-port="0"/>
		<edge from-layer="824" from-port="2" to-layer="826" to-port="0"/>
		<edge from-layer="825" from-port="1" to-layer="826" to-port="1"/>
		<edge from-layer="826" from-port="2" to-layer="828" to-port="0"/>
		<edge from-layer="827" from-port="0" to-layer="828" to-port="1"/>
		<edge from-layer="818" from-port="2" to-layer="829" to-port="0"/>
		<edge from-layer="828" from-port="2" to-layer="829" to-port="1"/>
		<edge from-layer="829" from-port="2" to-layer="831" to-port="0"/>
		<edge from-layer="830" from-port="0" to-layer="831" to-port="1"/>
		<edge from-layer="831" from-port="2" to-layer="833" to-port="0"/>
		<edge from-layer="832" from-port="0" to-layer="833" to-port="1"/>
		<edge from-layer="736" from-port="2" to-layer="835" to-port="0"/>
		<edge from-layer="834" from-port="0" to-layer="835" to-port="1"/>
		<edge from-layer="734" from-port="2" to-layer="836" to-port="0"/>
		<edge from-layer="835" from-port="2" to-layer="836" to-port="1"/>
		<edge from-layer="836" from-port="2" to-layer="838" to-port="0"/>
		<edge from-layer="837" from-port="0" to-layer="838" to-port="1"/>
		<edge from-layer="836" from-port="2" to-layer="840" to-port="0"/>
		<edge from-layer="839" from-port="0" to-layer="841" to-port="0"/>
		<edge from-layer="840" from-port="1" to-layer="841" to-port="1"/>
		<edge from-layer="841" from-port="2" to-layer="843" to-port="0"/>
		<edge from-layer="842" from-port="0" to-layer="843" to-port="1"/>
		<edge from-layer="838" from-port="2" to-layer="844" to-port="0"/>
		<edge from-layer="843" from-port="2" to-layer="844" to-port="1"/>
		<edge from-layer="844" from-port="2" to-layer="846" to-port="0"/>
		<edge from-layer="845" from-port="0" to-layer="846" to-port="1"/>
		<edge from-layer="846" from-port="2" to-layer="848" to-port="0"/>
		<edge from-layer="847" from-port="0" to-layer="848" to-port="1"/>
		<edge from-layer="368" from-port="4" to-layer="851" to-port="0"/>
		<edge from-layer="849" from-port="0" to-layer="851" to-port="1"/>
		<edge from-layer="850" from-port="0" to-layer="851" to-port="2"/>
		<edge from-layer="851" from-port="3" to-layer="852" to-port="0"/>
		<edge from-layer="852" from-port="1" to-layer="854" to-port="0"/>
		<edge from-layer="853" from-port="0" to-layer="854" to-port="1"/>
		<edge from-layer="846" from-port="2" to-layer="855" to-port="0"/>
		<edge from-layer="854" from-port="2" to-layer="856" to-port="0"/>
		<edge from-layer="855" from-port="1" to-layer="856" to-port="1"/>
		<edge from-layer="856" from-port="2" to-layer="858" to-port="0"/>
		<edge from-layer="857" from-port="0" to-layer="858" to-port="1"/>
		<edge from-layer="848" from-port="2" to-layer="859" to-port="0"/>
		<edge from-layer="858" from-port="2" to-layer="859" to-port="1"/>
		<edge from-layer="859" from-port="2" to-layer="861" to-port="0"/>
		<edge from-layer="860" from-port="0" to-layer="861" to-port="1"/>
		<edge from-layer="861" from-port="2" to-layer="863" to-port="0"/>
		<edge from-layer="862" from-port="0" to-layer="863" to-port="1"/>
		<edge from-layer="803" from-port="2" to-layer="865" to-port="0"/>
		<edge from-layer="864" from-port="0" to-layer="865" to-port="1"/>
		<edge from-layer="801" from-port="2" to-layer="866" to-port="0"/>
		<edge from-layer="865" from-port="2" to-layer="866" to-port="1"/>
		<edge from-layer="866" from-port="2" to-layer="868" to-port="0"/>
		<edge from-layer="867" from-port="0" to-layer="868" to-port="1"/>
		<edge from-layer="866" from-port="2" to-layer="870" to-port="0"/>
		<edge from-layer="869" from-port="0" to-layer="871" to-port="0"/>
		<edge from-layer="870" from-port="1" to-layer="871" to-port="1"/>
		<edge from-layer="871" from-port="2" to-layer="873" to-port="0"/>
		<edge from-layer="872" from-port="0" to-layer="873" to-port="1"/>
		<edge from-layer="868" from-port="2" to-layer="874" to-port="0"/>
		<edge from-layer="873" from-port="2" to-layer="874" to-port="1"/>
		<edge from-layer="874" from-port="2" to-layer="876" to-port="0"/>
		<edge from-layer="875" from-port="0" to-layer="876" to-port="1"/>
		<edge from-layer="876" from-port="2" to-layer="878" to-port="0"/>
		<edge from-layer="877" from-port="0" to-layer="878" to-port="1"/>
		<edge from-layer="368" from-port="4" to-layer="881" to-port="0"/>
		<edge from-layer="879" from-port="0" to-layer="881" to-port="1"/>
		<edge from-layer="880" from-port="0" to-layer="881" to-port="2"/>
		<edge from-layer="881" from-port="3" to-layer="882" to-port="0"/>
		<edge from-layer="882" from-port="1" to-layer="884" to-port="0"/>
		<edge from-layer="883" from-port="0" to-layer="884" to-port="1"/>
		<edge from-layer="876" from-port="2" to-layer="885" to-port="0"/>
		<edge from-layer="884" from-port="2" to-layer="886" to-port="0"/>
		<edge from-layer="885" from-port="1" to-layer="886" to-port="1"/>
		<edge from-layer="886" from-port="2" to-layer="888" to-port="0"/>
		<edge from-layer="887" from-port="0" to-layer="888" to-port="1"/>
		<edge from-layer="878" from-port="2" to-layer="889" to-port="0"/>
		<edge from-layer="888" from-port="2" to-layer="889" to-port="1"/>
		<edge from-layer="889" from-port="2" to-layer="891" to-port="0"/>
		<edge from-layer="890" from-port="0" to-layer="891" to-port="1"/>
		<edge from-layer="891" from-port="2" to-layer="893" to-port="0"/>
		<edge from-layer="892" from-port="0" to-layer="893" to-port="1"/>
		<edge from-layer="766" from-port="2" to-layer="894" to-port="0"/>
		<edge from-layer="833" from-port="2" to-layer="894" to-port="1"/>
		<edge from-layer="863" from-port="2" to-layer="894" to-port="2"/>
		<edge from-layer="893" from-port="2" to-layer="894" to-port="3"/>
		<edge from-layer="668" from-port="2" to-layer="895" to-port="0"/>
		<edge from-layer="895" from-port="1" to-layer="898" to-port="0"/>
		<edge from-layer="896" from-port="0" to-layer="898" to-port="1"/>
		<edge from-layer="897" from-port="0" to-layer="898" to-port="2"/>
		<edge from-layer="898" from-port="3" to-layer="900" to-port="0"/>
		<edge from-layer="899" from-port="0" to-layer="900" to-port="1"/>
		<edge from-layer="668" from-port="2" to-layer="901" to-port="0"/>
		<edge from-layer="901" from-port="1" to-layer="904" to-port="0"/>
		<edge from-layer="902" from-port="0" to-layer="904" to-port="1"/>
		<edge from-layer="903" from-port="0" to-layer="904" to-port="2"/>
		<edge from-layer="904" from-port="3" to-layer="906" to-port="0"/>
		<edge from-layer="905" from-port="0" to-layer="906" to-port="1"/>
		<edge from-layer="900" from-port="2" to-layer="907" to-port="0"/>
		<edge from-layer="906" from-port="2" to-layer="907" to-port="1"/>
		<edge from-layer="894" from-port="4" to-layer="908" to-port="0"/>
		<edge from-layer="907" from-port="2" to-layer="908" to-port="1"/>
		<edge from-layer="525" from-port="2" to-layer="909" to-port="0"/>
		<edge from-layer="908" from-port="2" to-layer="909" to-port="1"/>
		<edge from-layer="909" from-port="2" to-layer="911" to-port="0"/>
		<edge from-layer="910" from-port="0" to-layer="911" to-port="1"/>
		<edge from-layer="206" from-port="2" to-layer="914" to-port="0"/>
		<edge from-layer="912" from-port="0" to-layer="914" to-port="1"/>
		<edge from-layer="913" from-port="0" to-layer="914" to-port="2"/>
		<edge from-layer="914" from-port="3" to-layer="916" to-port="0"/>
		<edge from-layer="915" from-port="0" to-layer="916" to-port="1"/>
		<edge from-layer="916" from-port="2" to-layer="918" to-port="0"/>
		<edge from-layer="917" from-port="0" to-layer="918" to-port="1"/>
		<edge from-layer="918" from-port="2" to-layer="920" to-port="0"/>
		<edge from-layer="919" from-port="0" to-layer="920" to-port="1"/>
		<edge from-layer="920" from-port="2" to-layer="921" to-port="0"/>
		<edge from-layer="918" from-port="2" to-layer="922" to-port="0"/>
		<edge from-layer="921" from-port="1" to-layer="923" to-port="0"/>
		<edge from-layer="922" from-port="1" to-layer="923" to-port="1"/>
		<edge from-layer="923" from-port="2" to-layer="927" to-port="0"/>
		<edge from-layer="924" from-port="0" to-layer="927" to-port="1"/>
		<edge from-layer="925" from-port="0" to-layer="927" to-port="2"/>
		<edge from-layer="926" from-port="0" to-layer="927" to-port="3"/>
		<edge from-layer="594" from-port="2" to-layer="930" to-port="0"/>
		<edge from-layer="928" from-port="0" to-layer="930" to-port="1"/>
		<edge from-layer="929" from-port="0" to-layer="930" to-port="2"/>
		<edge from-layer="930" from-port="3" to-layer="932" to-port="0"/>
		<edge from-layer="931" from-port="0" to-layer="932" to-port="1"/>
		<edge from-layer="932" from-port="2" to-layer="934" to-port="0"/>
		<edge from-layer="933" from-port="0" to-layer="934" to-port="1"/>
		<edge from-layer="934" from-port="2" to-layer="936" to-port="0"/>
		<edge from-layer="935" from-port="0" to-layer="936" to-port="1"/>
		<edge from-layer="936" from-port="2" to-layer="937" to-port="0"/>
		<edge from-layer="934" from-port="2" to-layer="938" to-port="0"/>
		<edge from-layer="937" from-port="1" to-layer="939" to-port="0"/>
		<edge from-layer="938" from-port="1" to-layer="939" to-port="1"/>
		<edge from-layer="939" from-port="2" to-layer="943" to-port="0"/>
		<edge from-layer="940" from-port="0" to-layer="943" to-port="1"/>
		<edge from-layer="941" from-port="0" to-layer="943" to-port="2"/>
		<edge from-layer="942" from-port="0" to-layer="943" to-port="3"/>
		<edge from-layer="927" from-port="4" to-layer="944" to-port="0"/>
		<edge from-layer="943" from-port="4" to-layer="944" to-port="1"/>
		<edge from-layer="944" from-port="2" to-layer="945" to-port="0"/>
		<edge from-layer="945" from-port="1" to-layer="948" to-port="0"/>
		<edge from-layer="946" from-port="0" to-layer="948" to-port="1"/>
		<edge from-layer="947" from-port="0" to-layer="948" to-port="2"/>
		<edge from-layer="948" from-port="3" to-layer="950" to-port="0"/>
		<edge from-layer="949" from-port="0" to-layer="950" to-port="1"/>
		<edge from-layer="944" from-port="2" to-layer="951" to-port="0"/>
		<edge from-layer="951" from-port="1" to-layer="954" to-port="0"/>
		<edge from-layer="952" from-port="0" to-layer="954" to-port="1"/>
		<edge from-layer="953" from-port="0" to-layer="954" to-port="2"/>
		<edge from-layer="954" from-port="3" to-layer="956" to-port="0"/>
		<edge from-layer="955" from-port="0" to-layer="956" to-port="1"/>
		<edge from-layer="950" from-port="2" to-layer="958" to-port="0"/>
		<edge from-layer="956" from-port="2" to-layer="958" to-port="1"/>
		<edge from-layer="957" from-port="0" to-layer="958" to-port="2"/>
		<edge from-layer="958" from-port="3" to-layer="960" to-port="0"/>
		<edge from-layer="959" from-port="0" to-layer="960" to-port="1"/>
		<edge from-layer="960" from-port="2" to-layer="962" to-port="0"/>
		<edge from-layer="961" from-port="0" to-layer="963" to-port="0"/>
		<edge from-layer="962" from-port="1" to-layer="963" to-port="1"/>
		<edge from-layer="963" from-port="2" to-layer="964" to-port="0"/>
		<edge from-layer="960" from-port="2" to-layer="965" to-port="0"/>
		<edge from-layer="964" from-port="1" to-layer="965" to-port="1"/>
		<edge from-layer="965" from-port="2" to-layer="966" to-port="0"/>
		<edge from-layer="963" from-port="2" to-layer="966" to-port="1"/>
		<edge from-layer="960" from-port="2" to-layer="966" to-port="2"/>
		<edge from-layer="911" from-port="2" to-layer="967" to-port="0"/>
		<edge from-layer="966" from-port="3" to-layer="967" to-port="1"/>
		<edge from-layer="967" from-port="2" to-layer="969" to-port="0"/>
		<edge from-layer="968" from-port="0" to-layer="969" to-port="1"/>
		<edge from-layer="970" from-port="0" to-layer="972" to-port="0"/>
		<edge from-layer="954" from-port="3" to-layer="972" to-port="1"/>
		<edge from-layer="971" from-port="0" to-layer="972" to-port="2"/>
		<edge from-layer="972" from-port="3" to-layer="974" to-port="0"/>
		<edge from-layer="973" from-port="0" to-layer="974" to-port="1"/>
		<edge from-layer="944" from-port="2" to-layer="975" to-port="0"/>
		<edge from-layer="974" from-port="2" to-layer="976" to-port="0"/>
		<edge from-layer="975" from-port="1" to-layer="976" to-port="1"/>
		<edge from-layer="976" from-port="2" to-layer="978" to-port="0"/>
		<edge from-layer="977" from-port="0" to-layer="978" to-port="1"/>
		<edge from-layer="978" from-port="2" to-layer="979" to-port="0"/>
		<edge from-layer="969" from-port="2" to-layer="981" to-port="0"/>
		<edge from-layer="981" from-port="1" to-layer="982" to-port="0"/>
		<edge from-layer="982" from-port="1" to-layer="984" to-port="0"/>
		<edge from-layer="983" from-port="0" to-layer="984" to-port="1"/>
		<edge from-layer="980" from-port="0" to-layer="986" to-port="0"/>
		<edge from-layer="984" from-port="2" to-layer="986" to-port="1"/>
		<edge from-layer="985" from-port="0" to-layer="986" to-port="2"/>
		<edge from-layer="969" from-port="2" to-layer="987" to-port="0"/>
		<edge from-layer="986" from-port="3" to-layer="987" to-port="1"/>
		<edge from-layer="987" from-port="2" to-layer="989" to-port="0"/>
		<edge from-layer="988" from-port="0" to-layer="989" to-port="1"/>
		<edge from-layer="989" from-port="2" to-layer="991" to-port="0"/>
		<edge from-layer="990" from-port="0" to-layer="991" to-port="1"/>
		<edge from-layer="979" from-port="1" to-layer="992" to-port="0"/>
		<edge from-layer="991" from-port="2" to-layer="992" to-port="1"/>
		<edge from-layer="992" from-port="2" to-layer="994" to-port="0"/>
		<edge from-layer="993" from-port="0" to-layer="994" to-port="1"/>
		<edge from-layer="969" from-port="2" to-layer="995" to-port="0"/>
		<edge from-layer="994" from-port="2" to-layer="995" to-port="1"/>
		<edge from-layer="995" from-port="2" to-layer="997" to-port="0"/>
		<edge from-layer="996" from-port="0" to-layer="997" to-port="1"/>
		<edge from-layer="944" from-port="2" to-layer="999" to-port="0"/>
		<edge from-layer="998" from-port="0" to-layer="999" to-port="1"/>
		<edge from-layer="999" from-port="2" to-layer="1001" to-port="0"/>
		<edge from-layer="1000" from-port="0" to-layer="1001" to-port="1"/>
		<edge from-layer="1001" from-port="2" to-layer="1003" to-port="0"/>
		<edge from-layer="1002" from-port="0" to-layer="1003" to-port="1"/>
		<edge from-layer="997" from-port="2" to-layer="1007" to-port="0"/>
		<edge from-layer="1003" from-port="2" to-layer="1007" to-port="1"/>
		<edge from-layer="1004" from-port="0" to-layer="1007" to-port="2"/>
		<edge from-layer="1005" from-port="0" to-layer="1007" to-port="3"/>
		<edge from-layer="1006" from-port="0" to-layer="1007" to-port="4"/>
		<edge from-layer="1007" from-port="5" to-layer="1010" to-port="0"/>
		<edge from-layer="1008" from-port="0" to-layer="1010" to-port="1"/>
		<edge from-layer="1009" from-port="0" to-layer="1010" to-port="2"/>
		<edge from-layer="1010" from-port="3" to-layer="1012" to-port="0"/>
		<edge from-layer="1011" from-port="0" to-layer="1012" to-port="1"/>
		<edge from-layer="1012" from-port="2" to-layer="1013" to-port="0"/>
		<edge from-layer="969" from-port="2" to-layer="1015" to-port="0"/>
		<edge from-layer="1013" from-port="1" to-layer="1015" to-port="1"/>
		<edge from-layer="1014" from-port="0" to-layer="1015" to-port="2"/>
		<edge from-layer="1012" from-port="2" to-layer="1016" to-port="0"/>
		<edge from-layer="995" from-port="2" to-layer="1018" to-port="0"/>
		<edge from-layer="1016" from-port="1" to-layer="1018" to-port="1"/>
		<edge from-layer="1017" from-port="0" to-layer="1018" to-port="2"/>
		<edge from-layer="1012" from-port="2" to-layer="1019" to-port="0"/>
		<edge from-layer="999" from-port="2" to-layer="1021" to-port="0"/>
		<edge from-layer="1019" from-port="1" to-layer="1021" to-port="1"/>
		<edge from-layer="1020" from-port="0" to-layer="1021" to-port="2"/>
		<edge from-layer="1021" from-port="3" to-layer="1023" to-port="0"/>
		<edge from-layer="1022" from-port="0" to-layer="1023" to-port="1"/>
		<edge from-layer="1018" from-port="3" to-layer="1024" to-port="0"/>
		<edge from-layer="1023" from-port="2" to-layer="1024" to-port="1"/>
		<edge from-layer="1024" from-port="2" to-layer="1027" to-port="0"/>
		<edge from-layer="1025" from-port="0" to-layer="1027" to-port="1"/>
		<edge from-layer="1026" from-port="0" to-layer="1027" to-port="2"/>
		<edge from-layer="1027" from-port="3" to-layer="1029" to-port="0"/>
		<edge from-layer="1028" from-port="0" to-layer="1029" to-port="1"/>
		<edge from-layer="1015" from-port="3" to-layer="1030" to-port="0"/>
		<edge from-layer="1029" from-port="2" to-layer="1030" to-port="1"/>
		<edge from-layer="1012" from-port="2" to-layer="1031" to-port="0"/>
		<edge from-layer="978" from-port="2" to-layer="1033" to-port="0"/>
		<edge from-layer="1031" from-port="1" to-layer="1033" to-port="1"/>
		<edge from-layer="1032" from-port="0" to-layer="1033" to-port="2"/>
		<edge from-layer="1033" from-port="3" to-layer="1034" to-port="0"/>
		<edge from-layer="1034" from-port="1" to-layer="1036" to-port="0"/>
		<edge from-layer="1035" from-port="0" to-layer="1036" to-port="1"/>
		<edge from-layer="1030" from-port="2" to-layer="1037" to-port="0"/>
		<edge from-layer="1036" from-port="2" to-layer="1037" to-port="1"/>
		<edge from-layer="1037" from-port="2" to-layer="1041" to-port="0"/>
		<edge from-layer="1038" from-port="0" to-layer="1041" to-port="1"/>
		<edge from-layer="1039" from-port="0" to-layer="1041" to-port="2"/>
		<edge from-layer="1040" from-port="0" to-layer="1041" to-port="3"/>
		<edge from-layer="1041" from-port="4" to-layer="1042" to-port="0"/>
		<edge from-layer="1037" from-port="2" to-layer="1045" to-port="0"/>
		<edge from-layer="1043" from-port="0" to-layer="1045" to-port="1"/>
		<edge from-layer="1044" from-port="0" to-layer="1045" to-port="2"/>
		<edge from-layer="1045" from-port="3" to-layer="1046" to-port="0"/>
		<edge from-layer="1046" from-port="1" to-layer="1048" to-port="0"/>
		<edge from-layer="1047" from-port="0" to-layer="1048" to-port="1"/>
		<edge from-layer="1048" from-port="2" to-layer="1049" to-port="0"/>
	</edges>
	<meta_data>
		<MO_version value="2021.3.0-2787-60059f2c755-releases/2021/3"/>
		<cli_parameters>
			<caffe_parser_path value="DIR"/>
			<data_type value="float"/>
			<disable_nhwc_to_nchw value="False"/>
			<disable_omitting_optional value="False"/>
			<disable_resnet_optimization value="False"/>
			<disable_weights_compression value="False"/>
			<enable_concat_optimization value="False"/>
			<enable_flattening_nested_params value="False"/>
			<enable_ssd_gluoncv value="False"/>
			<extensions value="DIR"/>
			<framework value="onnx"/>
			<freeze_placeholder_with_value value="{}"/>
			<generate_deprecated_IR_V7 value="False"/>
			<input_model value="DIR/model.onnx"/>
			<input_model_is_text value="False"/>
			<input_shape value="[1, 3, 512, 512]"/>
			<k value="DIR/CustomLayersMapping.xml"/>
			<keep_shape_ops value="True"/>
			<legacy_mxnet_model value="False"/>
			<log_level value="ERROR"/>
			<mean_scale_values value="[(array([0., 0., 0.]), array([255., 255., 255.]))]"/>
			<mean_values value="[0, 0, 0]"/>
			<model_name value="model"/>
			<output value="['boxes', 'labels']"/>
			<output_dir value="DIR"/>
			<placeholder_data_types value="{}"/>
			<placeholder_shapes value="[  1   3 512 512]"/>
			<progress value="False"/>
			<remove_memory value="False"/>
			<remove_output_softmax value="False"/>
			<reverse_input_channels value="True"/>
			<save_params_from_nd value="False"/>
			<scale_values value="[255, 255, 255]"/>
			<silent value="False"/>
			<static_shape value="False"/>
			<stream_output value="False"/>
			<unset unset_cli_parameters="batch, counts, disable_fusing, disable_gfusing, finegrain_fusing, input, input_checkpoint, input_meta_graph, input_proto, input_symbol, mean_file, mean_file_offsets, move_to_preprocess, nd_prefix_name, pretrained_model_name, saved_model_dir, saved_model_tags, scale, tensorboard_logdir, tensorflow_custom_layer_libraries, tensorflow_custom_operations_config_update, tensorflow_object_detection_api_pipeline_config, tensorflow_use_custom_operations_config, transformations_config"/>
		</cli_parameters>
	</meta_data>
</net>
